calmalert_model (1).pt (torch, 744554 bytes, 33 tensors)

conv1.weight f4 [64, 1, 5]
0.064867064 -0.1683296 -0.34660792 0.28694522 0.4550761 -0.11092251 -0.19504906 0.05394674
0.4507699 0.44621906 0.322848 0.2709149 -0.18619896 0.14066774 -0.23095927 -0.06890845
-0.2526326 -0.092669584 0.32692122 0.44489348 0.18930438 -0.482262 0.18834585 -0.14477326
0.16132495 0.025234282 0.23313458 0.3205788 -0.028815115 -0.07962865 0.04970458 -0.13842846
-0.10918596 -0.096173495 0.32243776 -0.19786565 -0.28894818 -0.33636236 -0.2836891 -0.39325634
0.11442607 0.23359671 -0.3353478 0.32967234 -0.39339912 0.3593863 0.024195308 -0.2831684
-0.3313921 -0.18118243 -0.11616081 0.3292439 -0.31084335 0.0077843424 0.06578901 -0.23013964
0.39993674 -0.1929373 0.17474838 -0.42484877 -0.5180687 -0.21251619 0.27373612 -0.17460611
-0.27923656 0.06893525 -0.018919304 -0.07320239 -0.3008582 0.43245634 0.40848228 0.25845513
-0.13623644 0.12898393 -0.09145243 -0.14415024 -0.21018718 0.29762816 0.5039221 -0.01822622
0.45278558 0.38231432 -0.20075847 0.31358406 -0.3950698 0.21486707 -0.32980677 0.4849449
-0.24664713 -0.078787856 -0.1707931 0.18902726 -0.115727104 -0.045291703 -0.22458926 -0.05712835
-0.058977846 -0.04861107 0.4103702 0.1780834 0.51333976 0.08457941 0.12836345 0.18751381
-0.11491926 0.25680906 -0.07725468 0.13515022 0.40371788 -0.48319757 0.29568425 -0.41490173
0.20282952 0.07116079 -0.15299141 -0.37339228 0.047980826 0.34678704 -0.21313979 -0.3429839
0.22019464 -0.48836917 0.19932482 -0.20588322 0.32675192 0.008995867 -0.13833925 0.042570543
-0.11993522 0.19446558 0.13761352 0.26963437 0.3317916 0.17515951 -0.19955122 0.33467522
0.5075688 0.29553026 -0.08597709 -0.012990567 -0.037945714 0.14923374 -0.3375762 -0.36913693
-0.14601442 0.106074885 0.3614873 -0.1693743 0.13985245 0.36308375 -0.2987543 0.13754216
-0.12712786 -0.39658898 0.080884464 -0.5016172 0.3089697 0.24434054 -0.24658395 0.06141062
0.15424556 0.36238703 0.28750107 0.25244057 0.1747989 -0.33352357 0.04273931 0.28604
0.20115244 -0.042284906 0.44105482 0.1480518 -0.066597246 0.067766994 -0.3129176 0.5107209
0.06498625 0.15599924 0.21069194 0.019931102 0.38903204 0.059062816 0.28071713 -0.47931227
0.011021788 0.113323875 -0.21086055 -0.0071920124 -0.13275282 0.31975898 0.2584162 -0.1723384
-0.13176037 -0.12262126 0.11404459 0.06758468 0.018050186 -0.43679443 0.15020628 0.37547517
-0.05444616 -0.13703285 0.31781852 0.085989475 -0.019896155 0.029766632 0.39655635 -0.23668554
-0.00740522 -0.16303265 0.15225007 0.36186215 0.28154898 -0.20693353 0.24871501 0.17698586
0.18497135 0.24477336 -0.12335695 0.49047625 0.12102541 0.10571399 -0.35093498 0.30192038
0.36096498 -0.22871588 -0.30874294 0.3482529 0.2208734 -0.45033735 -0.1309262 -0.081381574
-0.10283003 -0.22287183 0.41180503 -0.35483235 0.20322017 0.19212596 -0.08974451 -0.26397714
-0.053477548 0.2851485 -0.35605505 0.19571851 -0.2801388 0.4623398 0.3315788 -0.32408825
0.09206993 0.04196151 -0.34254572 0.20188868 0.06543231 0.07292358 0.011269159 -0.36739528
00000000: 06d9 843d 985e 2cbe 9876 b1be 7cea 923e
00000010: bcff e83e 572b e3bd f1ba 47be 42f7 5c3d
00000020: 50cb e63e d376 e43e 554c a53e 5cb5 8a3e
00000030: f1aa 3ebe 340b 103e 9680 6cbe e01f 8dbd
00000040: 0f59 81be 8dc9 bdbd 3862 a73e 14c9 e33e
00000050: 02d9 413e 0beb f6be bcdd 403e 713f 14be
00000060: 5e32 253e 20b8 ce3c d5ba 6e3e e822 a43e
00000070: ad0d ecbc 5814 a3bd 0897 4b3d 31c0 0dbe
00000080: e39c dfbd 9cf6 c4bd 9016 a53e 4b9d 4abe
00000090: 04f1 93be b037 acbe b33f 91be e558 c9be
000000a0: 3758 ea3d fa33 6f3e b5b2 abbe d0ca a83e
000000b0: 9c6b c9be 7b01 b83e 3d35 c63c 73fb 90be
000000c0: 3aac a9be e387 39be b8e5 edbd a892 a83e
000000d0: dc26 9fbe cc13 ff3b 63bc 863d baa9 6bbe
000000e0: 82c4 cc3e 5b91 45be 3df1 323e c785 d9be
000000f0: 26a0 04bf d89d 59be 2427 8c3e f2cb 32be
00000100: 18f8 8ebe ed2d 8d3d a8fc 9abc 22eb 95bd
00000110: 160a 9abe eb6a dd3e 9724 d13e 3b54 843e
00000120: 9181 0bbe 5d14 043e 694b bbbd 1f9c 13be
00000130: 4f3b 57be b862 983e 0a01 013f 274f 95bc
00000140: 83d3 e73e b4be c33e a193 4dbe 178e a03e
00000150: 9746 cabe 1d06 5c3e 6fdc a8be b34a f83e
00000160: 1191 7cbe 875b a1bd 63e4 2ebe 5d90 413e
00000170: 5502 edbd cb83 39bd bafa 65be 6bff 69bd
00000180: c192 71bd 671c 47bd 0b1c d23e 7f5b 363e
00000190: 3c6a 033f f837 ad3d b571 033e 9f03 403e
000001a0: ca5a ebbd 7a7c 833e b437 9ebd d264 0a3e
000001b0: 1cb4 ce3e ac65 f7be ed63 973e 006e d4be
000001c0: 8bb2 4f3e c0bc 913d c8a9 1cbe 462d bfbe
000001d0: 8b87 443d 128e b13e 5141 5abe 969b afbe
000001e0: b47a 613e 860b fabe ce1b 4c3e 0dd3 52be
000001f0: 074c a73e 6763 133c cea8 0dbe 735e 2e3d
00000200: 99a0 f5bd fc21 473e 8fea 0c3e 840d 8a3e
00000210: 97e0 a93e 045d 333e 2857 4cbe 8d5a ab3e
00000220: 07f0 013f be4f 973e c214 b0bd 63d6 54bc
00000230: f76c 1bbd bbd0 183e cad6 acbe 84ff bcbe
00000240: ce84 15be ca3d d93d dd14 b93e 7570 2dbe
00000250: 7b35 0f3e 1de6 b93e 53f6 98be dad7 0c3e
00000260: ce2d 02be b60d cbbe c1a6 a53d fc69 00bf
00000270: 4731 9e3e 6834 7a3e 8180 7cbe b489 7b3d
00000280: 8cf2 1d3e cb8a b93e 5733 933e e43f 813e
00000290: 7cfe 323e 9ac3 aabe 6a0f 2f3d d673 923e
000002a0: e8fa 4d3e f032 2dbd f0d1 e13e e49a 173e
000002b0: 2364 88bd 6cc9 8a3d bc36 a0be 9bbe 023f
000002c0: 8317 853d 44be 1f3e a1bf 573e 8d46 a33c
000002d0: 352f c73e daeb 713d 28ba 8f3e 6b68 f5be
000002e0: bb94 343c 5916 e83d d4eb 57be f9aa ebbb
000002f0: 5bf0 07be 73b7 a33e 214f 843e 7a79 30be
00000300: 31ec 06be db20 fbbd 3690 e93d d669 8a3d
00000310: fcdd 933c 85a3 dfbe adcf 193e 483e c03e
00000320: f002 5fbd 5752 0cbe 1cb9 a23e 401b b03d
00000330: 43fd a2bc 27d9 f33c 6f09 cb3e b25d 72be
00000340: 7da7 f2bb 08f2 26be 71e7 1b3e ff45 b93e
00000350: 3027 903e 62e6 53be 26af 7e3e c83b 353e
00000360: 2169 3d3e dea5 7a3e 92a2 fcbd b41f fb3e
00000370: 2cdc f73d 9480 d83d c0ad b3be 4f95 9a3e
00000380: 67d0 b83e 7f34 6abe 8e13 9ebe 344e b23e
00000390: a32c 623e 9e92 e6be 8511 06be 62ab a6bd
000003a0: 8d98 d2bd 8338 64be 1cd8 d23e 96ac b5be
000003b0: f318 503e abbc 443e f8cb b7bd 0328 87be
000003c0: 460b 5bbd fcfe 913e d94c b6be 6f6a 483e
000003d0: 5a6e 8fbe cdb7 ec3e b2c4 a93e e5ee a5be
000003e0: 298f bc3d d5df 2b3d 2762 afbe e8bb 4e3e
000003f0: 6001 863d f558 953d 47a2 383c 3c1b bcbe

conv1.bias f4 [64]
-0.35278967 0.0052211513 -0.38064057 0.15701842 -0.026321676 0.4783194 -0.0780227 0.30151063
-0.144545 -0.25227943 -0.10488299 -0.16721444 -0.28226766 0.34010467 0.3677929 -0.009860803
0.033668205 -0.18786989 -0.47208688 -0.026150784 0.4096878 -0.3853872 -0.2991698 -0.16934031
0.3361757 -0.35362774 0.21497868 -0.17137292 -0.16755609 -0.36977243 -0.052542504 0.06643684
-0.17109431 -0.26243854 0.011957947 0.2785993 -0.3841804 -0.41359338 0.19774783 0.040273134
-0.4770083 0.34563577 -0.055760607 0.023930412 -0.019641308 0.32966587 -0.15797196 0.07928016
0.21830036 0.1430066 0.3338543 -0.013671566 -0.055627555 0.24781716 0.079062715 0.17214407
0.09619162 -0.4790474 -0.21081075 0.3773513 0.10761807 -0.16758585 0.28942177 -0.37661028
00000000: d9a0 b4be 3116 ab3b 52e3 c2be 70c9 203e
00000010: 8ea0 d7bc 48e6 f43e 5eca 9fbd 9a5f 9a3e
00000020: 9b03 14be c52a 81be e5cc d6bd 433a 2bbe
00000030: 6385 90be 3322 ae3e 5a4f bc3e 358f 21bc
00000040: ace7 093d f760 40be 5fb5 f1be 2b3a d6bc
00000050: 99c2 d13e 7951 c5be c92c 99be 8c67 2dbe
00000060: 391f ac3e b20e b5be 5f23 5c3e 627c 2fbe
00000070: d393 2bbe d052 bdbe cf36 57bd 0a10 883d
00000080: 5933 2fbe 585e 86be 44eb 433c 91a4 8e3e
00000090: 4bb3 c4be 83c2 d3be 687e 4a3e 71f5 243d
000000a0: 6f3a f4be 2cf7 b03e 3c65 64bd b609 c43c
000000b0: cfe6 a0bc f7c9 a83e 67c3 21be a35d a23d
000000c0: 218a 5f3e 5270 123e f3ee aa3e b4fe 5fbc
000000d0: b8d9 63bd c8c3 7d3e a2eb a13d 8946 303e
000000e0: 1d00 c53d b345 f5be c6de 57be 3134 c13e
000000f0: dd66 dc3d a09b 2bbe 172f 943e 10d3 c0be

bn1.weight f4 [64]
1.0042303 1.0426359 1.0411098 0.9884435 1.0733469 0.93469894 1.0706191 0.8725578
0.9890741 0.99561304 1.0015539 1.0519768 0.96926767 1.0692734 1.0273424 0.99004626
1.0958613 0.9886104 0.9405149 1.0365868 1.0315322 0.93204755 0.99617887 1.0682777
1.1028861 1.046626 0.9208296 0.8874644 0.95626396 0.980252 0.91185296 1.040993
0.9908976 0.9695276 1.0327454 0.90278596 0.9198113 1.0640872 0.9252416 0.95980674
1.041435 0.97416556 0.8922839 0.91450566 1.0037241 1.0678451 0.90980947 1.0212142
1.0011911 0.99978495 1.0389776 0.94374263 0.97450525 0.9476379 0.9966131 0.9448504
0.99536055 1.0452117 1.0370773 1.0229645 0.8945171 0.84622186 1.0268835 1.1384935
00000000: 9e8a 803f 1875 853f 1643 853f a20a 7d3f
00000010: 6e63 893f 6e48 6f3f 0c0a 893f f35f 5f3f
00000020: f633 7d3f 7fe0 7e3f eb32 803f 2da7 863f
00000030: ed21 783f f3dd 883f f57f 833f ac73 7d3f
00000040: 2f45 8c3f 9215 7d3f 96c5 703f e0ae 843f
00000050: 3f09 843f ab9a 6e3f 9405 7f3f 53bd 883f
00000060: 5f2b 8d3f d7f7 853f 7dbb 6b3f de30 633f
00000070: b7cd 743f ccf1 7a3f 326f 693f 423f 853f
00000080: 77ab 7d3f f632 783f 0031 843f fb1c 673f
00000090: c178 6b3f 0234 883f a2dc 6c3f e5b5 753f
000000a0: be4d 853f ea62 793f b86c 643f 0b1d 6a3f
000000b0: 087a 803f 26af 883f 46e9 683f 26b7 823f
000000c0: 0827 803f e8f1 7f3f 38fd 843f 1e99 713f
000000d0: 2d79 793f 6698 723f 0922 7f3f b7e1 713f
000000e0: f3cf 7e3f 7fc9 853f f3be 843f 80f0 823f
000000f0: 13ff 643f ffa1 583f eb70 833f 28ba 913f

bn1.bias f4 [64]
-0.14407223 -0.14889231 0.03731374 -0.16205713 -0.03742467 -0.032827385 -0.14704356 -0.13364059
-0.11104781 -0.124548644 -0.12251222 -0.16679771 -0.09497561 -0.2492092 -0.15772611 -0.16456003
0.002581416 0.004305624 -0.05493795 -0.10494416 -0.21746507 0.06658362 -0.12424932 -0.06351303
-0.045469664 -0.23605943 -0.14722121 -0.27334428 -0.07818235 -0.024536446 -0.18133558 -0.119798884
-0.2185398 -0.18150823 -0.032762446 -0.21671943 -0.10094031 -0.05443786 0.01739838 -0.12286509
-0.15332058 0.018514065 -0.094691575 -0.01727062 0.022838794 -0.13352852 -0.04634935 -0.0972879
-0.18280059 -0.09031396 -0.19480494 -0.09008059 -0.17227826 -0.085224934 0.015869673 -0.056618575
-0.05526242 -0.06938774 -0.04543589 0.10377934 -0.14552294 -0.10732812 -0.15530477 -0.04897325
00000000: ac87 13be 3a77 18be 4bd6 183d 4ef2 25be
00000010: 9c4a 19bd 0276 06bd 9692 16be 14d9 08be
00000020: 096d e3bd 5c13 ffbd b0e7 fabd 05cd 2abe
00000030: 9382 c2bd b230 7fbe f482 21be 6d82 28be
00000040: f92c 293b 3116 8d3b 9e06 61bd f7ec d6bd
00000050: 2aaf 5ebe fe5c 883d 6d76 febd 1f13 82bd
00000060: 663e 3abd 90b9 71be 28c1 16be c8f3 8bbe
00000070: 111e a0bd a800 c9bc 09b0 39be 1e59 f5bd
00000080: e6c8 5fbe 4bdd 39be ea31 06bd b3eb 5dbe
00000090: cbb9 cebd 3cfa 5ebd 0c87 8e3c b1a0 fbbd
000000a0: 1200 1dbe cfaa 973c a8ed c1bd 1e7b 8dbc
000000b0: 6c18 bb3c b3bb 08be d1d8 3dbd e13e c7bd
000000c0: 1430 3bbe 87f6 b8bd f27a 47be 2c7c b8bd
000000d0: b669 30be 698a aebd 1e01 823c e1e8 67bd
000000e0: d95a 62bd 291b 8ebd fc1a 3abd 438a d43d
000000f0: f703 15be d8ce dbbd 3708 1fbe 2d98 48bd

bn1.running_mean f4 [64]
-0.35403687 0.0026495634 -0.3813458 0.15609224 -0.026276665 0.476666 -0.077562414 0.3060113
-0.14410657 -0.2512148 -0.104841135 -0.16663587 -0.2802488 0.34040204 0.36611268 -0.011299951
0.03196588 -0.1881607 -0.46965286 -0.027813075 0.40724748 -0.38635522 -0.29903764 -0.1679886
0.33682966 -0.3536191 0.21276234 -0.17472014 -0.16574268 -0.37178853 -0.051507402 0.066393286
-0.17492667 -0.26303756 0.011217089 0.27577475 -0.38485387 -0.4137689 0.19844367 0.03973988
-0.47768915 0.34579423 -0.05833157 0.020872314 -0.020895762 0.3313533 -0.15769379 0.080079995
0.21939252 0.14153014 0.33349258 -0.0109781595 -0.054670677 0.24874082 0.07983413 0.17468445
0.09466201 -0.47641155 -0.20934853 0.37658376 0.104676716 -0.16909319 0.2901499 -0.37622678
00000000: 5244 b5be 4ca4 2d3b c23f c3be a5d6 1f3e
00000010: 2942 d7bc 910d f43e 0bd9 9ebd 83ad 9c3e
00000020: ac90 13be 3a9f 80be f3b6 d6bd 98a2 2abe
00000030: c57c 8fbe 2d49 ae3e 1f73 bb3e 6e23 39bc
00000040: a8ee 023d 33ad 40be 5776 f0be 3fd8 e3bc
00000050: be82 d03e 5ad0 c5be 761b 99be 3405 2cbe
00000060: f074 ac3e 900d b5be 5fde 593e d6e9 32be
00000070: 73b8 29be 115b bebe 6df9 52bd 34f9 873d
00000080: fa1f 33be dcac 86be e2c7 373c 5932 8d3e
00000090: 910b c5be 84d9 d3be d134 4b3e 49c6 223d
000000a0: ac93 f4be f10b b13e 16ed 6ebd 6afc aa3c
000000b0: 972d abbc 24a7 a93e 7b7a 21be fb00 a43d
000000c0: 6fa8 603e 47ed 103e 8abf aa3e bddd 33bc
000000d0: 5cee 5fbd eab5 7e3e 1480 a33d 7be0 323e
000000e0: 28de c13d 37ec f3be 765f 56be 96cf c03e
000000f0: bf60 d63d c426 2dbe 878e 943e cca0 c0be

bn1.running_var f4 [64]
0.33434495 0.5185068 0.24790782 0.35761338 0.20492414 0.19845279 0.09907597 1.0279474
0.27523303 0.36321127 0.12368615 0.28633383 0.5148981 0.171273 0.29987848 0.36210015
0.57683367 0.26197523 0.11507104 0.21646973 0.4370704 0.33119226 0.18389718 0.31056112
0.2760927 0.04747244 0.38625395 0.7096191 0.39392412 0.3740768 0.28535497 0.27412507
0.72098434 0.1813238 0.29615682 0.5012501 0.3472312 0.11109009 0.09020444 0.23420016
0.098086745 0.16147964 0.43105268 0.5056965 0.30302423 0.3352796 0.1861688 0.18100722
0.20407227 0.3899743 0.10737349 0.54985374 0.14269266 0.10330776 0.25210607 0.27405855
0.4223461 0.49325278 0.3621589 0.1501623 0.54523003 0.2911557 0.06972783 0.13227268
00000000: 432f ab3e ddbc 043f 8cdb 7d3e 1a19 b73e
00000010: a2d7 513e 3537 4b3e 58e8 ca3d c893 833f
00000020: 58eb 8c3e d4f6 b93e 2a4f fd3d 599a 923e
00000030: 5dd0 033f 3062 2f3e ac89 993e 3165 b93e
00000040: 5fab 133f 9e21 863e 5eaa eb3d 3eaa 5d3e
00000050: b1c7 df3e 0892 a93e 8b4f 3c3e de01 9f3e
00000060: 065c 8d3e 7672 423d 14c3 c53e 99a9 353f
00000070: 6cb0 c93e ff86 bf3e 0c1a 923e 1f5a 8c3e
00000080: 6e92 383f f2ac 393e dea1 973e ed51 003f
00000090: 4ac8 b13e 3383 e33d 1bbd b83d 2bd2 6f3e
000000a0: b4e1 c83d eb5a 253e f0b2 dc3e 5375 013f
000000b0: fe25 9b3e c5a9 ab3e 09a3 3e3e f559 393e
000000c0: 52f8 503e b6aa c73e a2e6 db3d 37c3 0c3f
000000d0: 061e 123e 0593 d33d 0c14 813e 6751 8c3e
000000e0: bf3d d83e a18b fc3e e46c b93e 25c4 193e
000000f0: 3294 0b3f 5c12 953e 77cd 8e3d 7d72 073e

conv2.weight f4 [128, 64, 3]
0.06693077 -0.001172284 -0.01958735 0.18540974 0.026338901 0.08404736 -0.015931882 0.11811745
-0.06751517 0.05557093 0.020702474 -0.017054861 0.054609276 -0.002822544 0.030912176 -0.04124953
0.039402634 3.814263e-05 0.034844987 0.024769662 0.04720427 0.039799586 0.038588602 0.0543142
0.061655432 -0.005925004 -0.17907965 -0.12026089 -0.036695182 -0.0068667126 -0.03307977 0.06786193
-0.06295703 -0.08127738 0.06290077 -0.032270297 0.020544296 0.0064242743 -0.0155761065 -0.060042147
-0.019168314 -0.08097261 0.07055311 0.09071169 -0.049433894 0.15364558 -0.10990709 -0.051299073
-0.015665853 -0.0308614 -0.01355315 0.11455029 -0.109103546 -0.0030607444 -0.021960288 0.047603905
-0.0885389 0.1290973 -0.009786188 -0.016799534 0.034626808 -0.004586984 -0.012610098 0.13689065
-0.06533324 -0.11762506 0.011570753 0.0077827717 0.0075003845 0.0028126156 0.006040635 -0.023202337
0.044544537 -0.053361125 0.0031378646 0.043294594 -0.076036416 -0.0019325817 -0.11024957 -0.083428904
-0.0018814525 -0.034927886 0.07853262 0.007383228 0.050672628 0.05699832 -0.09085606 0.108762756
-0.0148970885 0.01212793 -0.14602588 0.041620616 -0.1417896 -0.014580633 0.10890327 -0.001486985
-0.059943214 0.08675232 0.10371035 0.07211038 0.040928576 0.061812315 0.07453196 0.03424942
-0.068591505 0.034353383 -0.028886702 -0.037055094 -0.091752954 -0.018022154 -0.107073225 0.07194832
-0.0032157083 0.011816982 0.016025912 0.012156949 -0.05797424 0.14571835 -0.021457141 -0.011281581
0.19412358 -0.020792225 0.027523424 0.058474813 0.07729059 -0.12330647 0.04298155 0.1131143
-0.009751066 -0.10803966 -0.025340557 0.018115867 0.15015307 0.012639878 0.15347525 0.153757
-0.07317224 -0.07408937 -0.03332797 0.026894655 0.048004363 -0.061357796 0.14893088 -0.07952814
0.0666242 0.10709169 -0.13313186 0.036384955 0.16693456 -0.09449683 0.0011293998 0.13693684
-0.017008582 -0.0806695 -0.06278705 -0.06747172 -0.09310091 0.017717768 -0.07245439 -0.047742363
0.017659735 -0.035545234 0.1402727 -0.05754624 0.00815846 0.05581659 0.020881103 0.039880794
0.059165057 0.065213025 0.0735893 0.06297099 -0.009719267 0.013229699 0.16968527 0.05448827
-0.07133837 -0.08038078 -0.021882044 -0.077583484 -0.053765155 -0.04757439 0.041464057 0.03927777
-0.06636422 0.05394252 -0.07919898 0.0034334008 0.0012802712 0.07825264 -0.111772455 -0.053899996
0.049993668 -0.09149491 -0.107300065 -0.024249988 -0.072814204 -0.07502599 -0.087264165 0.05284489
0.05153626 -0.024753675 -0.06184124 0.06001285 0.08185957 0.05238228 0.08321009 -0.014762257
-0.0088453265 -0.068749726 -0.024539161 -0.07883155 -0.012919972 -0.020973517 -0.062869035 -0.03167567
0.01109802 -0.0083035715 -0.057997037 -0.064057484 -0.121802546 -0.013382033 -0.02295816 0.0061786673
0.030195229 0.12992328 -0.074878745 0.14770907 0.098887525 -0.114564784 -0.06469531 -0.055348143
-0.017357277 0.041621674 -0.077702224 -0.048685655 0.10806447 0.060919173 -0.002257039 -0.09518763
-0.033339098 -0.016340123 0.058792144 -0.034061357 0.04019096 0.04800824 0.060510173 -0.004829528
0.22482371 0.030150644 -0.043411292 0.004474253 0.0010043544 0.0083704805 -0.059184488 0.13697523
00000000: 0013 893d 53a7 99ba a675 a0bc 0ddc 3d3e
00000010: aec4 d73c 0621 ac3d 9483 82bc 90e7 f13d
00000020: 6545 8abd 589e 633d 3c98 a93c a3b6 8bbc
00000030: faad 5f3d 6efa 38bb 883b fd3c 44f5 28bd
00000040: a864 213d 56fb 1f38 9eb9 0e3d bfe9 ca3c
00000050: 4459 413d e404 233d 150f 1e3d 9178 5e3d
00000060: 688a 7c3d 8926 c2bb a860 37be 574b f6bd
00000070: b04d 16bd 2902 e1bb a77e 07bd 32fb 8a3d
00000080: 9eef 80bd c174 a6bd 1ed2 803d dc2d 04bd
00000090: 834c a83c b882 d23b ed32 7fbc c1ee 75bd
000000a0: de06 9dbc f8d4 a5bd 267e 903d 0dc7 b93d
000000b0: 327b 4abd 4455 1d3e f816 e1bd fa1e 52bd
000000c0: ad55 80bc 0cd1 fcbc 080e 5ebc 5899 ea3d
000000d0: ae71 dfbd c596 48bb 10e6 b3bc 50fc 423d
000000e0: e253 b5bd 1532 043e 3f56 20bc 2d9f 89bc
000000f0: d7d4 0d3d 694e 96bb 969a 4ebc 102d 0c3e
00000100: 6fcd 85bd 68e5 f0bd 4193 3d3c 9f06 ff3b
00000110: c9c5 f53b dc53 383b 85f0 c53b d412 bebc
00000120: 5574 363d 3291 5abd a2a4 4d3b ac55 313d
00000130: fbb8 9bbd ae4e fdba 87ca e1bd c6dc aabd
00000140: 129b f6ba 8b10 0fbd b6d5 a03d 01ef f13b
00000150: 1a8e 4f3d 1277 693d be12 babd 02bf de3d
00000160: eb12 74bc 3ab4 463c cf87 15be 617a 2a3d
00000170: 4b31 11be 9be3 6ebc ad08 df3d f0e6 c2ba
00000180: 0487 75bd 33ab b13d 1866 d43d 9bae 933d
00000190: b9a4 273d e92e 7d3d 36a4 983d 1f49 0c3d
000001a0: b479 8cbd 22b6 0c3d cea3 ecbc 15c7 17bd
000001b0: f9e8 bbbd 32a3 93bc 3549 dbbd a459 933d
000001c0: a2be 52bb 049c 413c c648 833c f12d 473c
000001d0: 6676 6dbd 3137 153e e3c6 afbc 61d6 38bc
000001e0: 55c8 463e 7554 aabc ce78 e13c 4983 6f3d
000001f0: 874a 9e3d 1a88 fcbd 6c0d 303d 78a8 e73d
00000200: efc2 1fbc e643 ddbd 0097 cfbc ba67 943c
00000210: bac1 193e 7e17 4f3c 9e28 1d3e 7a72 1d3e
00000220: 54db 95bd 2bbc 97bd e982 08bd 2e52 dc3c
00000230: 39a0 443d 5052 7bbd 5681 183e a6df a2bd
00000240: 4572 883d e352 db3d b853 08be 6408 153d
00000250: e5f0 2a3e 8e87 c1bd 5e08 943a 2c39 0c3e
00000260: 9555 8bbc 0d36 a5bd 7f96 80bd 9d2e 8abd
00000270: b1ab bebd da24 913c f862 94bd 7f8d 43bd
00000280: 26ab 903c e197 11bd a6a3 0f3e 9bb5 6bbd
00000290: 10ab 053c f09f 643d d90e ab3c 0b5a 233d
000002a0: 0f57 723d 688e 853d fdb5 963d eff6 803d
000002b0: 8f3d 1fbc 61c1 583c fac1 2d3e 182f 5f3d
000002c0: da19 92bd ae9e a4bd f941 b3bc 17e4 9ebd
000002d0: da38 5cbd 5ddd 42bd 37d6 293d bae1 203d
000002e0: f7e9 87bd d5f2 5c3d 1333 a2bd e802 613b
000002f0: c6ce a73a ec42 a03d f5e8 e4bd 3ec6 5cbd
00000300: 29c6 4c3d af61 bbbd 23c0 dbbd e9a7 c6bc
00000310: 9d1f 95bd 3aa7 99bd 8eb7 b2bd e273 583d
00000320: af17 533d 38c8 cabc 3d4d 7dbd 09d0 753d
00000330: fea5 a73d cd8e 563d 0d6a aa3d 65dd 71bc
00000340: fdeb 10bc a8cc 8cbd 5a06 c9bc 7072 a1bd
00000350: 4aae 53bc a7d0 abbc 7bc1 80bd 59be 01bd
00000360: 78d4 353c b40b 08bc 4d8e 6dbd 9230 83bd
00000370: 9d73 f9bd 5140 5bbc c012 bcbc 6b76 ca3b
00000380: fc5b f73c 9c0a 053e 075a 99bd 0c41 173e
00000390: 8b85 ca3d f1a0 eabd fa7e 84bd bcb4 62bd
000003a0: d930 8ebc 7d7b 2a3d 5822 9fbd 9c6a 47bd
000003b0: e850 dd3d 6286 793d d5ea 13bb bbf1 c2bd
000003c0: 948e 08bd b9db 85bc 08d0 703d ec83 0bbd
000003d0: 479f 243d 4aa4 443d 84d9 773d 0441 9ebb
000003e0: 3038 663e 7cfe f63c 0ad0 31bd c19c 923b
000003f0: 8ba4 833a 5724 093c 6f6b 72bd 3c43 0c3e

conv2.bias f4 [128]
0.056766957 0.06419744 -0.023751408 -0.06128822 -0.0817749 0.059697997 -0.018394735 -0.0032565063
0.039604448 0.034352552 -0.029217789 0.02887075 0.08800325 0.05271296 -0.08364809 -0.06520455
-0.014982961 -0.033458617 0.014046835 -0.009242559 -0.044262473 -0.04989242 -0.01324396 -0.03945298
-0.056606878 0.018641353 -0.07678796 -0.0111834295 -0.037276126 -0.015707506 0.029563427 0.012317788
-0.057069473 -0.071908236 -0.0367532 0.024495512 0.06155175 0.008022245 -0.030405918 -0.04809955
0.03991206 -0.054628752 0.00965891 -0.023011252 -0.08455612 -0.00942831 -0.065202504 0.028465947
0.08398944 0.06818095 -0.012680859 -0.03780507 0.032389686 -0.0043823463 0.058301467 -0.048516802
0.08767082 -0.0012808525 -0.067967705 -0.0043203905 0.037948977 -0.011282429 0.07698128 0.05083266
-0.0059980545 -0.078796774 0.059719976 -0.057693657 0.03524175 0.058552038 -0.03750568 -0.039913166
0.02285163 0.028648064 0.029402357 0.016071495 -0.05800389 0.031446617 -0.010890786 0.03850731
0.05709579 -0.055736534 -0.040222906 -0.03843362 -0.06836913 -0.062208954 -0.036975723 -0.04875276
0.042763818 0.045938518 0.019869093 -0.051823303 0.011313591 -0.019196553 0.03656544 0.05593863
0.06358245 0.046403527 0.053007632 0.034911025 -0.059445783 0.01090876 -0.05575994 -0.065591484
-0.008358298 0.01697737 -0.009573552 -0.011266501 0.030427616 0.003901142 -0.015161137 -0.039597742
0.008930687 0.03454817 0.06897297 0.07732165 -0.048772693 0.008656099 -0.0439225 -0.012931799
-0.0212291 0.041130338 -0.046025548 -0.030590866 0.105216175 -0.056256313 0.013854401 0.022378866
00000000: 7884 683d f379 833d 5092 c2bc 5b09 7bbd
00000010: 9979 a7bd e385 743d 8eb0 96bc 1c6b 55bb
00000020: 4638 223d 43b5 0c3d 255a efbc 5a82 ec3c
00000030: 0c3b b43d 8be9 573d b14f abbd f789 85bd
00000040: 187b 75bc e70b 09bd b224 663c 1a6e 17bc
00000050: 914c 35bd ff5b 4cbd 32fd 58bc 7399 21bd
00000060: 9ddc 67bd c0b5 983c 0243 9dbd b43a 37bc
00000070: daae 18bd 07ad 80bc 002f f23c 8cd0 493c
00000080: aec1 69bd a044 93bd 868a 16bd d0aa c83c
00000090: b01d 7c3d bc6f 033c d515 f9bc 0904 45bd
000000a0: d47a 233d 66c2 5fbd 6840 1e3c 1882 bcbc
000000b0: c22b adbd 3379 1abc e488 85bd 6b31 e93c
000000c0: a802 ac3d 74a2 8b3d 61c3 4fbc 7dd9 1abd
000000d0: 0cab 043d c999 8fbb 85cd 6e3d 8eb9 46bd
000000e0: c28c b33d 47e2 a7ba a732 8bbd 1092 8dbb
000000f0: 6370 1b3d f0d9 38bc 5da8 9d3d e835 503d
00000100: 548b c4bb 3460 a1bd ef9c 743d 2f50 6cbd
00000110: a759 103d 43d4 6f3d 8e9f 19bd fd7b 23bd
00000120: 5733 bb3c 58af ea3c 36dd f03c 5ea8 833c
00000130: 7d95 6dbd 2bce 003d 446f 32bc d7b9 1d3d
00000140: 46dd 693d fe4b 64bd c6c0 24bd 926c 1dbd
00000150: 1d05 8cbd d1ce 7ebd db73 17bd f9b0 47bd
00000160: 1d29 2f3d 072a 3c3d 82c4 a23c ac44 54bd
00000170: a45c 393c 1742 9dbc a5c5 153d e81f 653d
00000180: 8437 823d a011 3e3d 881e 593d ddfe 0e3d
00000190: 6c7d 73bd a8ba 323c 8964 64bd d454 86bd
000001a0: 3ef1 08bc 2014 8b3c 63da 1cbc 2197 38bc
000001b0: 5643 f93c 4daa 7f3b 6b66 78bc 3e31 22bd
000001c0: 0452 123c 6282 0d3d b341 8d3d d05a 9e3d
000001d0: e0c5 47bd 50d2 0d3c 14e8 33bd e5df 53bc
000001e0: a6e8 adbc 4978 283d 4985 3cbd b299 fabc
000001f0: 947b d73d 056d 66bd 92fd 623c e253 b73c

bn2.weight f4 [128]
0.9649483 1.1066227 0.94526404 0.9942358 1.0196267 0.97464573 1.0131074 0.98766965
0.9812056 1.086266 1.0089056 1.0109706 1.0073341 0.95276016 0.99654603 1.1075488
1.0264266 0.9793483 1.0253841 1.0349317 0.94087446 0.9974815 0.9233625 1.0103993
0.95576286 0.9619984 1.0085557 0.95682967 0.9288308 0.9742808 0.94847685 0.9987214
1.0174812 0.93467087 1.086235 1.0202423 0.98442096 1.0014188 0.99037564 0.97364354
1.0256145 1.0332586 0.9935973 0.968584 1.0020235 1.048535 0.9959404 1.0076308
0.9661223 0.9883992 0.99086857 1.0137566 1.0300255 1.0429598 1.0428486 0.8497484
0.96601063 1.0000188 0.9585293 0.9848576 1.003124 0.9516551 0.9402861 1.0105252
0.9541169 0.9637138 0.96804184 1.0022457 1.0478357 0.9966804 0.9972936 1.0187765
0.96934015 0.9883106 1.0282729 1.0156718 1.0134643 0.93627733 1.0312313 0.99375844
0.93467075 1.000253 0.9689848 1.0865272 0.9824365 0.95052874 1.036409 1.0160084
0.9856682 0.9844439 0.94507146 0.98359764 1.0764781 1.0113479 0.97384554 1.0088398
0.97805375 0.91399163 1.0441883 1.0889759 1.0024427 1.0218496 0.9326354 1.0658821
0.9643336 0.9434283 0.99540114 0.99221575 1.0781361 0.9695857 0.99795777 0.94964004
0.9995282 1.0835271 1.0779542 1.0736221 0.97559726 0.9969766 0.999086 1.065491
1.0145217 1.0615853 1.04512 0.97569454 1.0360714 1.0033424 1.0270394 0.99652976
00000000: da06 773f d0a5 8d3f d3fc 713f 3d86 7e3f
00000010: 2183 823f 6282 793f 81ad 813f ebd7 7c3f
00000020: 4a30 7b3f c40a 8b3f d223 813f 7c67 813f
00000030: 53f0 803f 17e8 733f a41d 7f3f 29c4 8d3f
00000040: f261 833f 92b6 7a3f c93f 833f a478 843f
00000050: 26dd 703f f35a 7f3f 7c61 6c3f c454 813f
00000060: e0ac 743f 8745 763f 5a18 813f caf2 743f
00000070: dbc7 6d3f 776a 793f 61cf 723f 35ac 7f3f
00000080: d33c 823f 9746 6f3f c009 8b3f 4d97 823f
00000090: 0303 7c3f 7e2e 803f 4289 7d3f b440 793f
000000a0: 5647 833f d141 843f 655c 7e3f 1ff5 773f
000000b0: 4e42 803f 6536 863f f3f5 7e3f 0cfa 803f
000000c0: cb53 773f bb07 7d3f 90a9 7d3f c7c2 813f
000000d0: e0d7 833f b57f 853f 107c 853f 1c89 593f
000000e0: 794c 773f 9e00 803f 2d62 753f a11f 7c3f
000000f0: 5e66 803f ab9f 733f 97b6 703f e458 813f
00000100: 0141 743f f3b5 763f 97d1 773f 9649 803f
00000110: 7b1f 863f 7226 7f3f a24e 7f3f 4567 823f
00000120: ad26 783f ec01 7d3f 729e 833f 8901 823f
00000130: 33b9 813f dfaf 6f3f 63ff 833f f466 7e3f
00000140: 9546 6f3f 4a08 803f 630f 783f 5313 8b3f
00000150: f580 7b3f da55 733f 0da9 843f 900c 823f
00000160: c054 7c3f 8404 7c3f 34f0 713f 0ecd 7b3f
00000170: 09ca 893f d973 813f f14d 793f aa21 813f
00000180: bb61 7a3f 5bfb 693f f6a7 853f 9063 8b3f
00000190: 0b50 803f f8cb 823f 32c1 6e3f d36e 883f
000001a0: 91de 763f 8484 713f 9cd2 7e3f da01 7e3f
000001b0: 5d00 8a3f c536 783f 297a 7f3f 9c1b 733f
000001c0: 15e1 7f3f 04b1 8a3f 67fa 893f 736c 893f
000001d0: bec0 793f dc39 7f3f 1ac4 7f3f 0262 883f
000001e0: d9db 813f 07e2 873f 7ec6 853f 1ec7 793f
000001f0: fd9d 843f 866d 803f 0776 833f 931c 7f3f

bn2.bias f4 [128]
-0.12920046 -0.044413883 -0.058418363 -0.05606616 -0.058350783 -0.07039391 -0.03306807 -0.09230636
-0.10208899 -0.07998992 -0.075418234 -0.11991527 -0.113464355 -0.14059837 -0.13049516 -0.07280186
-0.055491704 -0.04166494 -0.07824796 -0.07367092 -0.09919109 -0.09224331 -0.11036869 -0.044318665
-0.08659234 -0.09825468 -0.07356915 -0.17144081 -0.15954463 -0.060873784 -0.018913055 -0.11753826
-0.18298732 -0.12504725 -0.061344687 -0.08339282 -0.099802375 -0.059184197 -0.08022648 -0.09055112
-0.048018903 -0.055366248 -0.09601372 -0.099569775 -0.07073787 -0.048431147 -0.09085094 -0.092226245
-0.07127545 -0.09602404 -0.08354144 -0.039613683 -0.05517528 -0.015376965 -0.07151897 -0.15871544
-0.06116173 -0.07607546 -0.14975893 -0.1293058 -0.076317005 -0.09636793 -0.12857646 -0.095534556
-0.1357531 -0.12216302 -0.08317718 -0.067692116 -0.045956165 -0.038222093 -0.073455654 -0.05555205
-0.11534253 -0.12264958 -0.055285506 -0.061146244 -0.06352645 -0.13405019 -0.0634197 -0.08237256
-0.0442758 -0.08113634 -0.09591888 -0.0008621131 -0.06088746 -0.06895339 -0.012099743 -0.083151855
-0.076725036 -0.076784074 -0.067793354 -0.118636064 -0.023538874 -0.114065096 -0.07827678 -0.047631964
-0.059793856 -0.08073153 -0.08188755 -0.054442488 -0.059931505 -0.036458667 -0.13381961 -0.090300106
-0.10128019 -0.12171246 -0.048724722 -0.11806676 -0.043763094 -0.09901969 -0.11707849 -0.13082178
-0.08423753 -0.05931378 -0.044899788 -0.015358472 -0.069737874 -0.035241738 -0.03227277 -0.10860767
-0.1214632 -0.023213966 -0.06917374 -0.107142776 -0.03725558 -0.06439822 -0.16282368 -0.06422393
00000000: 204d 04be 55eb 35bd 1848 6fbd a1a5 65bd
00000010: 3b01 6fbd af2a 90bd 6272 07bd 1e0b bdbd
00000020: 0814 d1bd c1d1 a3bd e074 9abd 2396 f5bd
00000030: 0060 e8bd 05f9 0fbe 86a0 05be 2419 95bd
00000040: 454b 63bd dba8 2abd 7740 a0bd c8e0 96bd
00000050: b324 cbbd 0fea bcbd fb08 e2bd 7d87 35bd
00000060: 5357 b1bd c039 c9bd 6cab 96bd 2e8e 2fbe
00000070: ab5f 23be ca56 79bd 8def 9abc e6b7 f0bd
00000080: 0761 3bbe 630c 00be 9144 7bbd dbc9 aabd
00000090: 3065 ccbd 216b 72bd c84d a4bd de72 b9bd
000000a0: 78af 44bd b8c7 62bd d7a2 c4bd 3deb cbbd
000000b0: 04df 90bd bd5f 46bd 0f10 babd 1de1 bcbd
000000c0: ddf8 91bd 40a8 c4bd c617 abbd f541 22bd
000000d0: 79ff 61bd aaef 7bbc 8a78 92bd 4d86 22be
000000e0: b984 7abd 73cd 9bbd 685a 19be bd68 04be
000000f0: 174c 9cbd 8d5c c5bd 8ca9 03be 9fa7 c3bd
00000100: dc02 0bbe 9b30 fabd cc58 aabd 2aa2 8abd
00000110: 883c 3cbd c58e 1cbd eb6f 96bd 8c8a 63bd
00000120: b438 ecbd b42f fbbd 0e73 62bd 7c74 7abd
00000130: 281a 82bd 7444 09be 30e2 81bd f2b2 a8bd
00000140: 8b5a 35bd cf2a a6bd 1e71 c4bd 6eff 61ba
00000150: 2165 79bd 6f37 8dbd 003e 46bc 854b aabd
00000160: 0422 9dbd f840 9dbd 3ed7 8abd 77f7 f2bd
00000170: 99d4 c0bc f69a e9bd 944f a0bd bc19 43bd
00000180: 67ea 74bd 9356 a5bd a9b4 a7bd 16ff 5ebd
00000190: bd7a 75bd af55 15bd 0208 09be 43ef b8bd
000001a0: fd6b cfbd 6244 f9bd 9393 47bd fccc f1bd
000001b0: ee40 33bd d6ca cabd d9c6 efbd 25f6 05be
000001c0: ba84 acbd 02f3 72bd d7e8 37bd 1aa2 7bbc
000001d0: bbd2 8ebd a459 10bd 7430 04bd b36d debd
000001e0: b3c1 f8bd 372b bebc f6aa 8dbd ac6d dbbd
000001f0: 4f99 18bd 37e3 83bd 40bb 26be d687 83bd

bn2.running_mean f4 [128]
0.6120634 0.8512231 0.47519153 -1.4620271 0.39150432 0.17608987 1.1637529 1.0243535
-0.82969785 1.3656119 -0.475859 0.1969013 1.4074736 0.31615067 2.161924 0.14764792
1.6887612 0.39153028 0.54627156 -0.7316502 -0.12748714 0.9283816 -0.16490607 -2.4575684
0.43597665 -1.5446308 1.1220107 1.2964337 2.35633 -1.0977153 -0.4516652 1.9958361
0.96734977 -1.2565389 -1.2857227 0.77952075 1.6595602 -1.7993108 0.47193122 -0.43944502
-0.62564147 -1.826762 -0.49880677 -2.1288805 0.96038854 1.2168014 0.879231 0.7044025
0.6345925 -0.5316644 -2.4778395 0.2764969 -2.1814976 2.141231 0.74311215 -0.58145404
0.24466361 1.9470088 0.89167476 1.4500192 1.048389 -0.31272715 -1.1712413 -2.3810344
0.86949027 -2.5821476 0.1816529 -0.899482 1.3423111 -1.3886135 0.6921505 0.61566985
2.5907776 -0.36976406 0.2675668 1.4542555 -0.57631606 -0.652783 0.93825316 0.80579275
0.09099017 -0.0999344 -1.9993271 0.15499267 -2.795558 -1.1338482 0.32062522 0.28744274
-0.6074974 -0.7089699 -0.34489682 -1.6354842 0.8985244 1.1311198 -1.8179408 -3.6220129
-0.7982338 -0.3116101 1.0524609 1.5097376 -0.82293135 0.3706076 0.5501897 0.76480824
2.0864508 -1.2353895 0.9421693 1.6405177 1.6394136 -1.033176 -0.37052694 1.0682678
0.8100884 -2.0871499 -0.51947814 -1.88084 -2.918745 -1.5817783 -0.4577181 1.2530334
1.4905871 0.5267277 1.2363995 0.39939335 -0.060582176 -1.8092914 2.1794577 -0.30389014
00000000: 30b0 1c3f c2e9 593f 4e4c f33e b423 bbbf
00000010: 4173 c83e e750 343e dbf5 943f 041e 833f
00000020: 1467 54bf 5fcc ae3f caa3 f3be 7fa0 493e
00000030: 1828 b43f 80de a13e f65c 0a40 0431 173e
00000040: 5429 d83f a876 c83e 74d8 0b3f 6d4d 3bbf
00000050: fd8b 02be 6baa 6d3f 23dd 28be cd48 1dc0
00000060: 5538 df3e 76b6 c5bf 0c9e 8f3f 8af1 a53f
00000070: 1cce 1640 ef81 8cbf a940 e7be 8f77 ff3f
00000080: 3ca4 773f 44d6 a0bf 9092 a4bf ac8e 473f
00000090: 786c d43f d14f e6bf f8a0 f13e f0fe e0be
000000a0: 0a2a 20bf 56d3 e9bf 9a63 ffbe 943f 08c0
000000b0: 06dc 753f 26c0 9b3f 4815 613f b953 343f
000000c0: a774 223f 281b 08bf ec94 1ec0 0091 8d3e
000000d0: a89d 0bc0 ee09 0940 993c 3e3f 2cda 14bf
000000e0: 1989 7a3e 9637 f93f cc44 643f 3b9a b93f
000000f0: 9c31 863f c61d a0be 3ceb 95bf de62 18c0
00000100: ea96 5e3f e841 25c0 3803 3a3e 7444 66bf
00000110: dad0 ab3f 16be b1bf c630 313f 8a9c 1d3f
00000120: 4dcf 2540 b751 bdbe 84fe 883e 0b25 ba3f
00000130: 7389 13bf c91c 27bf 5c31 703f 6f48 4e3f
00000140: 0e59 ba3d 68aa ccbd f3e9 ffbf 66b6 1e3e
00000150: 6cea 32c0 f021 91bf fd28 a43e b22b 933e
00000160: f384 1bbf 0d7f 35bf 5196 b0be 8c57 d1bf
00000170: b205 663f 89c8 903f 49b2 e8bf 0fcf 67c0
00000180: 0d59 4cbf 5c8b 9fbe 0ab7 863f 153f c13f
00000190: a1ab 52bf 48c0 bd3e 3bd9 0c3f 79ca 433f
000001a0: 6988 0540 3e21 9ebf 0232 713f 7cfc d13f
000001b0: 4ed8 d13f 1c3f 84bf b5b5 bdbe 00bd 883f
000001c0: f461 4f3f dd93 05c0 85fc 04bf 5dbf f0bf
000001d0: b8cc 3ac0 b677 cabf 075a eabe 6663 a03f
000001e0: 8fcb be3f a0d7 063f 5742 9e3f 497d cc3e
000001f0: 0425 78bd dc96 e7bf 3c7c 0b40 7d97 9bbe

bn2.running_var f4 [128]
2.5060697 2.7564127 3.4810781 4.195336 2.3253417 3.6163337 4.1302195 4.7614684
3.1627762 4.972547 3.02035 2.5216374 2.0133224 4.190792 3.76501 3.2694483
4.7574897 3.9900968 3.1731467 5.153397 2.475642 2.9347138 4.085121 4.9606166
2.6328804 3.251663 3.0210555 3.776153 3.7939425 5.835693 5.4502635 2.5000126
3.9161315 3.5096462 5.2030907 2.8423536 3.7110593 4.251619 3.341558 3.1845238
3.5368428 5.136857 3.9589963 4.099762 3.42144 4.1735024 3.7157207 3.8652012
3.4342325 4.1880307 4.7020206 3.1571264 5.377302 4.1137304 2.5430238 3.7774546
3.086698 4.980295 4.1848087 3.2290306 4.287681 3.271727 3.6396399 5.409952
3.3607366 5.093196 3.9811382 4.231335 4.2274694 4.5380917 3.912555 3.6731334
3.8706226 1.8468862 3.354178 3.735205 3.4713502 3.1684601 2.3795817 2.7178128
3.1908245 3.3168423 3.9501433 4.5506115 4.7058687 3.5736012 3.9782484 4.039682
3.5828037 4.7410946 4.78039 3.4903805 3.2420697 2.9154441 6.4386015 7.0822678
2.7760682 7.3635774 3.392157 3.438301 2.6151507 3.4864628 2.7829955 2.8765383
4.6248317 2.9650052 3.5154898 3.2489514 3.642333 3.3231542 3.0810196 4.472437
2.3436089 5.2843986 4.887388 3.9502873 6.285839 4.0309124 4.238985 2.848757
3.4013913 4.6296897 3.4574773 3.332276 4.284768 4.0628138 4.490657 2.1547458
00000000: 7263 2040 1169 3040 fcc9 5e40 3140 8640
00000010: 66d2 1440 0372 6740 c22a 8440 f35d 9840
00000020: ed6a 4a40 1b1f 9f40 6a4d 4140 8262 2140
00000030: 46da 0040 f81a 8640 edf5 7040 a43e 5140
00000040: 5b3d 9840 bf5d 7f40 d614 4b40 a1e8 a440
00000050: eb70 1e40 5ad2 3b40 50b9 8240 5fbd 9e40
00000060: 1d81 2840 3f1b 5040 f958 4140 7eac 7140
00000070: f4cf 7240 ffbd ba40 8f68 ae40 3500 2040
00000080: e6a1 7a40 0b9e 6040 b87f a640 1fe9 3540
00000090: ff81 6d40 430d 8840 16dc 5540 3dcf 4b40
000000a0: a25b 6240 2261 a440 3260 7d40 4031 8340
000000b0: dff8 5a40 558d 8540 5ece 6d40 755f 7740
000000c0: 77ca 5b40 5904 8640 f476 9640 5c0e 4a40
000000d0: dc12 ac40 aea3 8340 e7c0 2240 d1c1 7140
000000e0: 768c 4540 945e 9f40 f4e9 8540 70a8 4e40
000000f0: af34 8940 fa63 5140 dcef 6840 541e ad40
00000100: 4f16 5740 76fb a240 f8ca 7e40 1967 8740
00000110: 6e47 8740 0c38 9140 4d67 7a40 9e14 6b40
00000120: 48b8 7740 c466 ec3f daaa 5640 990d 6f40
00000130: 9a2a 5e40 0dc8 4a40 114b 1840 a5f0 2d40
00000140: 7836 4c40 2547 5440 26cf 7c40 9c9e 9140
00000150: 7a96 9640 e2b5 6440 9f9b 7e40 1345 8140
00000160: a84c 6540 0cb7 9740 f4f8 9840 6562 5f40
00000170: 127e 4f40 a396 3a40 0609 ce40 f0a1 e240
00000180: 1aab 3140 6da2 eb40 1a19 5940 200d 5c40
00000190: a15e 2740 3522 5f40 991c 3240 3419 3840
000001a0: 9ffe 9340 a5c2 3d40 c9fd 6040 d2ee 4f40
000001b0: fc1b 6940 8fae 5440 6d2f 4540 341e 8f40
000001c0: b0fd 1540 cb19 a940 7c65 9c40 82d1 7c40
000001d0: 9825 c940 3cfd 8040 c4a5 8740 0952 3640
000001e0: 65b0 5940 6b26 9440 4f47 5d40 0344 5540
000001f0: d21c 8940 9202 8240 76b3 8f40 5be7 0940

lstm1.weight_ih_l0 f4 [256, 128]
-0.06932264 0.12761194 0.04627487 -0.18458487 -0.05868193 -0.13783623 -0.025959799 -0.16126475
0.009130146 0.069853574 -0.16992143 0.045466565 -0.0032241768 -0.075989746 0.20171697 -0.11724968
-0.13966408 -0.035217986 -0.0047255037 -0.00086506683 -0.032144073 -0.0030213697 0.07615969 -0.117542915
0.12961014 -0.086268626 0.15669988 -0.022120826 -0.048468426 -0.2140918 -0.22631808 -0.13418432
0.053831056 -0.15647745 0.05975912 -0.09979059 0.07567388 0.053416777 -0.12615469 0.09186128
-0.16108753 0.088261984 -0.047573768 -0.08251072 -0.13911581 0.11621966 -0.011625596 -0.009839834
-0.13427016 -0.006263948 -0.17937267 -0.06341354 -0.1852075 0.011608495 0.020179894 0.011768093
0.01996852 0.11582953 -0.06451577 0.059547734 -0.099746294 0.12991852 -0.09485058 0.035156142
-0.08036923 -0.036203284 -0.13692397 -0.052192494 0.016645204 -0.18717039 -0.12770326 0.002645292
0.04276178 -0.011221565 0.08945989 -0.056859568 0.057829093 -0.00048237355 0.13468269 0.06297153
0.038095556 -0.04819679 0.059857998 -0.23458219 -0.065851554 -0.13920529 0.051194496 -0.15545878
-0.01875391 -0.1425106 0.10179419 0.006211767 -0.056800377 0.0080757495 -0.080458835 0.050438453
-0.034887772 0.09488746 -0.10535063 0.09808819 -0.06996945 -0.022922702 -0.046385303 -0.085382104
0.19794567 -0.01119719 0.073153466 -0.029514356 0.17651828 0.12119807 -0.050366677 0.038069725
-0.13042311 -0.20425211 0.0478546 -0.05755478 -0.025050022 -0.06445419 0.021475554 -0.14385419
-0.03985636 -0.25400162 0.10855516 0.068734646 -0.10568637 -0.13244562 -0.016719809 -0.010038489
0.10186544 -0.0143812075 -0.043945387 0.09006585 0.009563544 -0.11628104 0.04293786 0.032920625
0.21241318 0.04418835 -0.16582961 0.077985086 0.16725029 0.06782265 -0.0009592296 -0.051913664
0.03033707 0.09765434 -0.13597137 -0.08283148 -0.007768778 -0.009384351 0.097721376 0.007497706
-0.114999495 0.050249718 -0.054654263 -0.029352942 -0.109426506 0.06476903 -0.11731136 -0.14216828
-0.034829285 -0.041739523 -0.0016445621 -0.03592525 0.089814685 0.034178697 -0.037678864 -0.105547726
-0.08427696 0.028830864 -0.031786107 0.059847813 0.025116803 0.06295487 -0.1943391 0.1254784
-0.11014692 -0.03192696 0.05511071 -0.0911726 -0.027478421 -0.04031199 -0.038941998 0.08001329
-0.08845989 0.05928968 -0.11353103 0.1177171 -0.12177854 0.0031765527 -0.033837877 -0.02845763
0.10895013 -0.09868669 0.02299404 -0.06687115 -0.0973518 -0.117444225 0.039917123 -0.06557123
-0.14932288 0.046544373 -0.045818105 0.13367733 -0.048452053 -0.04145463 -0.016044093 -0.17738853
-0.11574473 -0.13450095 -0.13795418 -0.057302233 -0.0755809 -0.27466905 -0.0061656116 0.17568608
-0.08714689 0.16211791 -0.07339717 -0.030761464 0.19102228 0.0010061518 0.07817011 0.011317563
0.17896834 -0.043344736 0.17165558 -0.11178166 -0.14675134 0.12348929 0.057253912 0.007467216
-0.049718395 0.0053141965 -0.06839833 0.053745557 -0.2089094 0.056091502 -0.030968986 -0.022969468
-0.036196437 -0.03132462 0.029542388 -0.0690433 -0.02811283 -0.030493785 -0.058575284 -0.14100173
-0.1285697 0.16653961 -0.18087046 0.034034945 0.10734106 -0.03424933 0.10267806 -0.21924378
00000000: 07f9 8dbd b4ac 023e b88a 3d3d d103 3dbe
00000010: 775c 70bd f124 0dbe a5a9 d4bc 9622 25be
00000020: 9c96 153c 640f 8f3d e2ff 2dbe 263b 3a3d
00000030: b64c 53bb 83a0 9bbd e58e 4e3e 9a20 f0bd
00000040: 1a04 0fbe bc40 10bd 66d8 9abb a7c5 62ba
00000050: 81a9 03bd 2c02 46bb 9df9 9b3d 57ba f0bd
00000060: 85b8 043e 9bad b0bd ef75 203e bc36 b5bc
00000070: d486 46bd e13a 5bbe edbf 67be 9d67 09be
00000080: f47d 5c3d a03b 20be fbc5 743d 025f ccbd
00000090: e8fa 9a3d 8dcb 5a3d b22e 01be c421 bc3d
000000a0: 21f4 24be b3c2 b43d b6dc 42bd 61fb a8bd
000000b0: 6074 0ebe 9304 ee3d 4979 3ebc 4137 21bc
000000c0: 1e7e 09be ce41 cdbb 78ad 37be f5de 81bd
000000d0: 09a7 3dbe 8f31 3e3c 4e50 a53c f6ce 403c
000000e0: 0695 a33c 0838 ed3d d820 84bd 53e8 733d
000000f0: c947 ccbd 5c09 053e 0541 c2bd e3ff 0f3d
00000100: 9f98 a4bd e549 14bd cc35 0cbe ccc7 55bd
00000110: 865b 883c 98a9 3fbe a5c4 02be a35c 2d3b
00000120: fa26 2f3d a8da 37bc bf36 b73d 94e5 68bd
00000130: 33de 6c3d 15e7 fcb9 42ea 093e 38f7 803d
00000140: 160a 1c3d ff69 45bd a92d 753d 5036 70be
00000150: 2edd 86bd d58b 0ebe 52b1 513d 9630 1fbe
00000160: cda1 99bc 4cee 11be 7979 d03d 148c cb3b
00000170: 83a7 68bd 2650 043c 9ac7 a4bd 8d98 4e3d
00000180: 7be6 0ebd 5b54 c23d 12c2 d7bd 76e2 c83d
00000190: 254c 8fbd 64c8 bbbc 84fe 3dbd d0dc aebd
000001a0: 45b2 4a3e 6b74 37bc 7cd1 953d 17c8 f1bc
000001b0: 35c1 343e b236 f83d 4a4d 4ebd 00ef 1b3d
000001c0: a38d 05be 7727 51be 2f03 443d 90be 6bbd
000001d0: b435 cdbc 8f00 84bd 80ed af3c 834e 13be
000001e0: 6c40 23bd 800c 82be 2b52 de3d c0c4 8c3d
000001f0: 1872 d8bd d39f 07be fbf7 88bc 7978 24bc
00000200: d49e d03d 289f 6bbc 1400 34bd 7274 b83d
00000210: 69b0 1c3c c124 eebd 9cdf 2f3d c7d7 063d
00000220: d782 593e d8fe 343d 3dcf 29be a5b6 9f3d
00000230: a943 2b3e 9ae6 8a3d cf74 7bba 6ca3 54bd
00000240: 7285 f83c 00ff c73d 143c 0bbe 8da3 a9bd
00000250: 3c91 febb d2c0 19bc 2522 c83d 51af f53b
00000260: db84 ebbd a6d2 4d3d 26dd 5fbd 9575 f0bc
00000270: 011b e0bd a0a5 843d f040 f0bd 9094 11be
00000280: 27a9 0ebd 10f7 2abd 598e d7ba 5b26 13bd
00000290: c3f0 b73d f6fe 0b3d 2755 1abd 6829 d8bd
000002a0: 6699 acbd b42e ec3c 2632 02bd fb22 753d
000002b0: c1c1 cd3c 7cee 803d d400 47be 697d 003e
000002c0: b594 e1bd d8c5 02bd c5bb 613d b3b8 babd
000002d0: 6d1a e1bc 2f1e 25bd a581 1fbd 02de a33d
000002e0: 752a b5bd bcd9 723d f582 e8bd aa15 f13d
000002f0: 0767 f9bd b62d 503b 9699 0abd fa1f e9bc
00000300: 3f21 df3d 3f1c cabd ff5d bc3c bef3 88bd
00000310: 6160 c7bd 9986 f0bd 2380 233d 364a 86bd
00000320: 19e8 18be 50a5 3e3d c4ab 3bbd b6e2 083e
00000330: a975 46bd 55cc 29bd e76e 83bc 57a5 35be
00000340: 930b edbd 9eba 09be dc43 0dbe bfb5 6abd
00000350: 29ca 9abd 6ca1 8cbe e608 cabb 0de7 333e
00000360: 127a b2bd 3d02 263e 4151 96bd 77ff fbbc
00000370: 589b 433e dae0 833a a717 a03d 4d6d 393c
00000380: 7a43 373e 408a 31bd 7bc6 2f3e c8ed e4bd
00000390: fc45 16be f4e7 fc3d 1483 6a3d 8caf f43b
000003a0: 84a5 4bbd b622 ae3b 6c14 8cbd 4d24 5c3d
000003b0: 59ec 55be 34c0 653d acb2 fdbc 772a bcbc
000003c0: b742 14bd 3f4e 00bd e102 f23c 9366 8dbd
000003d0: e14c e6bc 1ace f9bc a3ec 6fbd c262 10be
000003e0: c7a7 03be 5c89 2a3e 1b36 39be 3a68 0b3d
000003f0: a1d5 db3d 0749 0cbd e048 d23d 7181 60be

lstm1.weight_hh_l0 f4 [256, 64]
0.033914726 0.16468038 0.096576154 -0.022888973 -0.119670615 -0.03522706 0.019330677 -0.035060383
0.08699835 0.20430464 0.043538388 0.034752235 0.13814765 -0.099011205 -0.0005773623 0.090683244
0.12698503 0.03960818 -0.022770949 0.022285968 0.023399705 -0.016369669 -0.04689771 0.19663611
0.11790395 0.11791906 -0.12169242 0.10685239 0.067973904 -0.051726207 -0.08689219 0.008242519
0.12583034 0.08141667 -0.056547225 0.08172812 0.117489256 0.16200346 -0.015463852 0.06969548
0.12424582 0.1257002 -0.044338517 0.038555514 -0.09450217 0.046224233 0.13448708 -0.10748778
0.15854098 -0.10341727 0.01923363 0.08782601 -0.11920655 -0.2923642 0.06930732 0.059790745
-0.18823816 -0.07625858 -0.045760952 0.0646461 0.047501784 -0.10255825 0.11835174 0.111761495
-0.10176416 0.09341984 0.11247483 -0.024839133 0.0010657078 -0.07146202 -0.060765535 -0.24818881
0.2154694 -0.05609232 0.112248614 -0.18496409 -0.090799615 0.016544325 0.11238306 0.07775433
-0.07067147 0.093025014 0.109133124 0.12860477 -0.1593619 0.026704911 -0.046639737 -0.07726291
0.03851304 0.039896425 0.03265103 0.09417085 0.09614659 -0.037856795 0.034785915 -0.18897294
0.024851086 0.2549283 0.008552556 0.2430294 0.18320227 0.017684083 0.06425994 -0.041955724
0.12250647 -0.07607949 0.022746477 0.14008336 0.010427991 -0.10844822 -0.2550055 -0.04520349
0.060850788 -0.14169069 0.0202517 0.22287878 -0.18329407 -0.212553 0.018357866 -0.092947945
0.018545287 0.0018255722 0.05774629 -0.13520633 0.012851071 0.06644165 0.02093499 -0.07657687
0.006856381 0.02923357 -0.11262283 0.0038707526 -0.1669362 -0.039732434 -0.09333108 -0.01938536
0.09070242 -0.016527437 0.22253112 -0.1345216 0.0032859934 0.06361066 -0.15192187 -0.052050423
-0.39827853 -0.00026751612 0.018711621 -0.041452944 0.17925546 0.100948796 -0.10865174 0.040991023
-0.044548284 -0.08059028 -0.17257719 0.08502435 0.09105461 -0.057280123 0.10586551 -0.04281418
-0.008619073 0.16089493 0.0076499213 0.06314856 -0.012986193 0.058832094 -0.08818439 0.09164042
0.16310409 -0.11906177 0.14929494 -0.18379204 0.14987753 -0.1372429 0.14128141 -0.036776744
0.22535199 0.19183445 0.041565526 -0.04173746 -0.064418785 0.036726993 -0.009701968 -0.13230792
0.0044945218 0.0571869 0.15177274 -0.15570529 0.15702674 -0.15725191 -0.2511594 -0.20463625
-0.06254551 0.15656194 0.0026091447 0.039470978 -0.3082459 0.3571075 0.050380643 0.24951385
-0.07082287 0.116929494 0.07249749 -0.08183392 0.15313424 0.025979513 -0.09747256 0.20153974
-0.012579022 0.050733842 -0.05684327 -0.058734488 -0.10398402 -0.17811817 0.014982779 0.14552806
-0.064268254 -0.11574361 0.10976106 0.0007161229 0.12171079 0.112564504 0.10687172 -0.08589069
0.14989926 -0.10783698 0.09822504 -0.1322196 -0.069397055 -0.2439983 0.011829366 -0.2453355
-0.006505592 -0.10143499 -0.06815338 -0.25457147 0.03384732 0.3140306 0.01254481 -0.11689345
-0.19870009 0.16033602 0.24338108 0.084009945 -0.28082085 0.008160914 -0.39311278 -0.091536894
0.100032486 0.05028018 -0.0059486437 0.08638406 0.001596247 -0.035306487 0.04237104 0.1906605
00000000: 2bea 0a3d f9a1 283e b8c9 c53d a881 bbbc
00000010: de15 f5bd 404a 10bd 5e5b 9e3c 7a9b 0fbd
00000020: 312c b23d 3c35 513e 4f55 323d 5c58 0e3d
00000030: 9476 0d3e 63c6 cabd 215a 17ba 23b8 b93d
00000040: 5d08 023e 303c 223d 248a babc 1091 b63c
00000050: bdb0 bf3c af19 86bc d017 40bd fa5a 493e
00000060: a077 f13d 8c7f f13d e039 f9bd 6dd5 da3d
00000070: e735 8b3d dcde 53bd 88f4 b1bd a10b 073c
00000080: abd9 003e c8bd a63d 109e 67bd 1361 a73d
00000090: 359e f03d 3ce4 253e 195c 7dbc 81bc 8e3d
000000a0: 9874 fe3d 8eb7 003e 4e9c 35bd 63ec 1d3d
000000b0: 5b8a c1bd 9f55 3d3d fbb6 093e 8e22 dcbd
000000c0: 9158 223e 6fcc d3bd d88f 9d3c 20de b33d
000000d0: 9022 f4bd c3b0 95be fff0 8d3d 24e7 743d
000000e0: 81c1 40be 752d 9cbd d66f 3bbd 2d65 843d
000000f0: 3b91 423d 0f0a d2bd 6662 f23d 36e3 e43d
00000100: ba69 d0bd e752 bf3d 3459 e63d 707b cbbc
00000110: 38af 8b3a ae5a 92bd 48e5 78bd 3525 7ebe
00000120: 03a4 5c3e 0fc1 65bd 9ae2 e53d 3a67 3dbe
00000130: 26f5 b9bd f787 873c 1729 e63d aa3d 9f3d
00000140: 34bc 90bd e683 be3d 3081 df3d f8b0 033e
00000150: c42f 23be 42c4 da3c 4f09 3fbd 043c 9ebd
00000160: d9bf 1d3d 6f6a 233d 16bd 053d a6dc c03d
00000170: 81e8 c43d ba0f 1bbd ad7b 0e3d 1f82 41be
00000180: 8194 cb3c f685 823e 0520 0c3c b3dc 783e
00000190: 6099 3b3e 36de 903c b79a 833d c4d9 2bbd
000001a0: ace4 fa3d 90cf 9bbd d256 ba3c 0372 0f3e
000001b0: 2ada 2a3c 1a1a debd 1590 82be 4b27 39bd
000001c0: ad3e 793d 5d17 11be e5e6 a53c 563a 643e
000001d0: 71b1 3bbe 7ea7 59be 3c63 963c 7e5b bebd
000001e0: 49ec 973c 0a48 ef3a 6087 6c3d 8773 0abe
000001f0: 4c8d 523c 8f12 883d db7f ab3c 56d4 9cbd
00000200: 7eab e03b 3d7b ef3c cca6 e6bd 74ac 7d3b
00000210: 53f1 2abe 7abe 22bd 5e24 bfbd 0cce 9ebc
00000220: 31c2 b93d 8c64 87bc 33df 633e 08c0 09be
00000230: d259 573b 4e46 823d 6891 1bbe d332 55bd
00000240: 2aeb cbbe 6841 8cb9 1d49 993c 90ca 29bd
00000250: be8e 373e 3ebe ce3d ce84 debd 34e6 273d
00000260: 4378 36bd 840c a5bd 13b8 30be 3f21 ae3d
00000270: d77a ba3d 909e 6abd 04d0 d83d ec5d 2fbd
00000280: 0337 0dbc a4c1 243e 31ac fa3b 0854 813d
00000290: 0bc4 54bc ecf9 703d 049a b4bd f9ad bb3d
000002a0: c204 273e a8d6 f3bd c6e0 183e fb33 3cbe
000002b0: 7f79 193e 6789 0cbe 13ac 103e 36a3 16bd
000002c0: acc2 663e 4070 443e 9d40 2a3d e6f4 2abd
000002d0: ffed 83bd 0b6f 163d 01f5 1ebc ba7b 07be
000002e0: c846 933b d03c 6a3d 506a 1b3e 3571 1fbe
000002f0: 9ecb 203e a506 21be f797 80be 2a8c 51be
00000300: dc17 80bd c651 203e 2ffe 2a3b 52ac 213d
00000310: 68d2 9dbe cbd6 b63e ef5b 4e3d 8f80 7f3e
00000320: 950b 91bd bb78 ef3d 9079 943d 8b98 a7bd
00000330: 39cf 1c3e fdd2 d43c b29f c7bd 6f60 4e3e
00000340: 3e18 4ebc 4ace 4f3d 7dd4 68bd 9393 70bd
00000350: 93f5 d4bd 9c64 36be 547a 753c 4f05 153e
00000360: 139f 83bd fc0a edbd 68ca e03d 32ba 3b3a
00000370: 8243 f93d 3888 e63d 8fdf da3d 75e7 afbd
00000380: 317f 193e a2d9 dcbd 362a c93d 9364 07be
00000390: 0b20 8ebd b1da 79be f5cf 413c 3b39 7bbe
000003a0: dc2c d5bb 26bd cfbd 0094 8bbd 3157 82be
000003b0: 7da3 0a3d 9ec8 a03e bf88 4d3c d565 efbd
000003c0: 0978 4bbe 202f 243e e438 793e 680d ac3d
000003d0: c0c7 8fbe 5bb5 053c 1446 c9be b277 bbbd
000003e0: d5dd cc3d 97f2 4d3d d7ec c2bb 20ea b03d
000003f0: 2939 d13a 899d 10bd 418d 2d3d 823c 433e
