backend/wakeword/detection/models/calmalert_model.pt (torch, 744554 bytes, 33 tensors)

conv1.weight f4 [64, 1, 5]
-0.15615043 -0.07163813 -0.27296907 0.45012778 0.21059988 -0.23901242 -0.027512625 -0.075706355
0.3527629 -0.06955092 -0.179381 0.19384591 -0.10398483 0.001016797 -0.34426647 -0.37289953
-0.20948166 -0.031143384 0.03444014 -0.18709463 0.20880862 -0.3290232 0.48652595 -0.16103606
-0.18116249 0.21218531 0.25653288 0.31083143 0.07987452 0.44483513 -0.5017421 -0.3604082
-0.1373896 0.031413447 -0.19225574 -0.090098575 -0.38711178 0.17093912 -0.11345722 0.44149822
-0.3345811 0.11520698 0.22574694 0.06877923 -0.056261834 -0.23615186 0.02736332 -0.39011133
-0.46049857 -0.10604284 -0.34280562 -0.07435893 0.14879185 -0.04478238 0.39654616 0.24053103
0.45124912 -0.5195933 0.2935993 0.2743812 0.35625455 0.338304 -0.13608591 -0.30009416
-0.2059262 -0.0313239 0.17437188 -0.20669426 -0.41846195 0.5058226 0.025844669 0.25227094
0.39901155 0.1467343 0.018365558 0.17755839 0.26006672 0.2686349 0.2277948 0.11245931
0.0355189 -0.29475322 -0.087647915 -0.37607133 0.31403184 0.32600418 -0.3301277 0.05866596
0.6473128 0.24719307 -0.16421394 -0.060461957 0.38497198 0.34710008 -0.17964658 0.06685378
0.078679234 -0.3027425 0.5172159 -0.20745511 -0.28483343 0.37306273 0.21839146 -0.22170834
-0.41215888 -0.24248013 -0.3714751 0.18668638 0.28490838 0.5464116 0.01875783 -0.08258769
-0.014235736 0.56205374 0.011002958 0.19980998 -0.3172713 -0.072497234 0.045516133 -0.214935
0.48530325 0.20044391 -0.09874636 0.16199024 -0.04418484 0.047723524 0.27511808 0.3496687
0.20961607 -0.30068743 -0.2452481 -0.2022187 -0.09079522 0.39454538 0.39720035 0.035577733
-0.2802466 0.26709265 -0.28882784 0.3202004 -0.034888815 -0.41598183 0.2243103 0.01576141
0.05952743 0.18508369 0.37717313 -0.26274493 0.2596233 -0.35610327 0.0035070041 -0.29374227
-0.28207526 0.05934561 0.26313913 -0.17568764 -0.28969827 -0.09388528 0.38685578 -0.024407063
0.3073601 -0.39932248 -0.1064722 -0.29161143 0.14585763 0.1133924 -0.28294092 0.020286962
0.33761105 -0.11968502 0.5124968 -0.14049847 0.09532251 0.20299904 -0.28194854 0.15447934
0.023315836 0.28908744 0.3594322 0.2884928 -0.1687719 -0.13729459 0.3200156 0.61254567
0.06065912 -0.31350428 0.014603284 -0.32089025 -0.3931636 0.02639132 -0.038268562 -0.07092212
0.088476665 0.52493274 0.24914856 -0.006535852 -0.3550701 0.438866 -0.21832107 0.015252293
-0.21118091 0.2577365 -0.14733595 -0.007073901 -0.16285242 -0.33788106 -0.0094589675 0.061670113
-0.19824578 0.48253965 -0.3069029 0.39142138 -0.07128646 -0.22515854 -0.14029944 -0.4546907
0.2447668 0.17965299 0.16397053 0.18821795 -0.49199328 0.032172278 0.12799855 -0.3255261
-0.35862276 0.18521918 0.2803138 -0.09535482 -0.1811873 0.3420751 0.09658384 0.050379835
-0.40951055 0.0639021 -0.37378794 0.024268301 -0.0028763427 -0.1209349 -0.37453127 0.48481372
0.39990786 0.1986865 -0.006679339 -0.19745241 0.13053781 0.4990074 0.42946094 0.03434446
0.18211149 0.09627906 -0.24540864 0.16281673 -0.28985855 0.14413047 0.28130344 0.37100962
00000000: e6e5 1fbe 03b7 92bd 9ac2 8bbe 2677 e63e
00000010: 7fa7 573e acbf 74be 2862 e1bc ef0b 9bbd
00000020: 579d b43e b670 8ebd a7af 37be 8b7f 463e
00000030: 00f6 d4bd 0c46 853a b243 b0be b0ec bebe
00000040: 5c82 56be 6920 ffbc 1b11 0d3d bc95 3fbe
00000050: edd1 553e bb75 a8be ee19 f93e a3e6 24be
00000060: a982 39be 1b47 593e 4758 833e 4c25 9f3e
00000070: 4195 a33d 6ec1 e33e 2c72 00bf 6c87 b8be
00000080: dcaf 0cbe 63ab 003d b0de 44be 9a85 b8bd
00000090: 8433 c6be aa0a 2f3e 425c e8bd 0e0c e23e
000000a0: 374e abbe a3f1 eb3d 352a 673e 20dc 8c3d
000000b0: cf72 66bd cbd1 71be 0b29 e03c acbc c7be
000000c0: 78c6 ebbe fd2c d9bd 3884 afbe 7f49 98bd
000000d0: e45c 183e bb6d 37bd 1908 cb3e c44d 763e
000000e0: 200a e73e 1104 05bf a652 963e b17b 8c3e
000000f0: ff66 b63e 2f36 ad3e 1b5a 0bbe f1a5 99be
00000100: 51de 52be 7d4d 00bd 8b8e 323e a9a7 53be
00000110: a540 d6be 977d 013f 33b8 d33c a829 813e
00000120: 3e4b cc3e 8441 163e 5e73 963c ded1 353e
00000130: 7727 853e 838a 893e 0a43 693e 1151 e63d
00000140: 447c 113d e5e9 96be c080 b3bd 6c8c c0be
00000150: c8c8 a03e 05ea a63e 7f06 a9be b84b 703d
00000160: 4bb6 253f 2e20 7d3e b327 28be f5a6 77bd
00000170: 0c1b c53e 1ab7 b13e 46f5 37be a2ea 883d
00000180: 9422 a13d 1101 9bbe 4368 043f 1d6f 54be
00000190: b0d5 91be 1402 bf3e 03a2 5f3e 8307 63be
000001a0: 7d06 d3be b64c 78be fc31 bebe b72a 3f3e
000001b0: 83df 913e a1e1 0b3f 05aa 993c bc23 a9bd
000001c0: 013d 69bc c1e2 0f3f c045 343c fd9a 4c3e
000001d0: 6271 a2be 6e79 94bd 206f 3a3d ec17 5cbe
000001e0: ab79 f83e 2b41 4d3e 883b cabd c5e0 253e
000001f0: 2afb 34bd be79 433d 47dc 8c3e c707 b33e
00000200: 98a5 563e b4f3 99be 5122 7bbe 6b12 4fbe
00000210: d8f2 b9bd da01 ca3e d85d cb3e f5b9 113d
00000220: 7b7c 8fbe 5ec0 883e 3ee1 93be 4ff1 a33e
00000230: 93e7 0ebd 92fb d4be 99b1 653e 131e 813c
00000240: 09d3 733d 9486 3d3e d61c c13e 8186 86be
00000250: 58ed 843e 2b53 b6be c4d5 653b 6365 96be
00000260: 2b6c 90be 6214 733d 2cba 863e 76e7 33be
00000270: 5553 94be ed46 c0bd f611 c63e 52f1 c7bc
00000280: 4e5e 9d3e ff73 ccbe 190e dabd 184e 95be
00000290: b45b 153e 463a e83d a2dd 90be d830 a63c
000002a0: 5bdb ac3e 6b1d f5bd fe32 033f d5de 0fbe
000002b0: 7338 c33d fbde 4f3e 8f5b 90be d52f 1e3e
000002c0: da00 bf3c 4503 943e 7f07 b83e 54b5 933e
000002d0: 8ad2 2cbe f496 0cbe 16d9 a33e cbcf 1c3f
000002e0: b375 783d a283 a0be 9d42 6f3c ba4b a4be
000002f0: bd4c c9be 9c32 d83c 7fbf 1cbd 9e3f 91bd
00000300: 4133 b53d fe61 063f cd20 7f3e b32a d6bb
00000310: c0cb b5be 0bb3 e03e 8f8f 5fbe c1e4 793c
00000320: cf3f 58be 0af6 833e 3cdf 16be 2fcc e7bb
00000330: c9c2 26be bffe acbe c9f9 1abc cd99 7c3d
00000340: f100 4bbe 700f f73e 6022 9dbe 6268 c83e
00000350: a3fe 91bd f68f 66be a8aa 0fbe 38cd e8be
00000360: 26a4 7a3e f4f6 373e e4e7 273e 35bc 403e
00000370: 8be6 fbbe 14c7 033d 0d12 033e 5bab a6be
00000380: 679d b7be 19aa 3d3e 4a85 8f3e 6349 c3bd
00000390: 2a89 39be 7824 af3e c0cd c53d 165b 4e3d
000003a0: 5eab d1be 1bdf 823d 2261 bfbe 51ce c63c
000003b0: 0681 3cbb b8ac f7bd 90c2 bfbe 8139 f83e
000003c0: b9c0 cc3e 7974 4b3e 5bde dabb f730 4abe
000003d0: b4ab 053e e67d ff3e 4ee2 db3e c7ac 0c3d
000003e0: 6f7b 3a3e f52d c53d 674c 7bbe 6eb9 263e
000003f0: 5768 94be f096 133e 0107 903e f9f4 bd3e

conv1.bias f4 [64]
-0.47351843 -0.2428737 0.16313434 -0.035136122 -0.42283836 0.396581 0.10517094 -0.29743204
-0.4392148 -0.25238192 -0.2945441 -0.38282976 -0.41988438 -0.23307419 -0.1905531 0.03196906
-0.30085003 -0.3178656 -0.087129004 0.34148473 -0.10382418 -0.29664573 0.31139624 0.41687584
-0.14006169 -0.27386916 -0.106402785 -0.30939966 -0.21500067 -0.3133393 0.3616249 -0.2520562
0.07682723 0.027752038 0.36231574 0.430873 -0.08786804 -0.05691424 0.32750148 -0.4390458
-0.09314393 -0.1634535 -0.33224303 0.1827124 -0.028120838 -0.36546096 0.32858184 -0.047682345
-0.2557274 -0.3953419 0.13295393 0.28244084 -0.12025532 0.10064495 0.23315234 0.10276086
-0.37789822 -0.19769381 -0.23845488 0.29436088 -0.25288728 -0.29509622 0.30288753 -0.18588997
00000000: 0271 f2be e2b3 78be b00c 273e e5ea 0fbd
00000010: 457e d8be aa0c cb3e dd63 d73d 0349 98be
00000020: c3e0 e0be 3438 81be 7cce 96be 4302 c4be
00000030: 16fb d6be 00ab 6ebe 5a20 43be fdf1 023d
00000040: 0409 9abe 48bf a2be b170 b2bd 16d7 ae3e
00000050: c6a1 d4bd f3e1 97be 546f 9f3e c070 d53e
00000060: 556c 0fbe 9438 8cbe b4e9 d9bd a269 9ebe
00000070: 2329 5cbe 026e a0be e626 b93e 830d 81be
00000080: 9857 9d3d 3e58 e33c 7381 b93e 639b dc3e
00000090: 29f4 b3bd e81e 69bd 46ae a73e 9cca e0be
000000a0: 3fc2 bebd 5b60 27be c21b aabe f618 3b3e
000000b0: ac5d e6bc b31d bbbe e13b a83e 904e 43bd
000000c0: b4ee 82be 416a cabe 1325 083e 169c 903e
000000d0: 6c48 f6bd f11e ce3d 7dbf 6e3e 4974 d23d
000000e0: e07b c1be 3f70 4abe 842d 74be 78b6 963e
000000f0: 717a 81be da16 97be 1314 9b3e f159 3ebe

bn1.weight f4 [64]
0.98281443 1.0597873 1.0429162 0.96038944 1.0004551 1.0023981 1.0067983 0.9791332
1.0994755 0.92166716 0.9927104 1.0987955 1.0143166 1.0112324 1.0313296 1.0134687
0.95654577 0.9717762 1.035809 1.0412482 1.0690354 1.0142272 0.9415154 0.98286974
1.022392 1.0321858 0.99364257 1.0233685 0.95851624 1.1076325 0.9725479 1.0297648
0.9792688 1.0913427 0.9529129 0.86602145 1.0132822 1.0246813 0.9906459 1.0202038
0.98187727 0.9338809 1.0466006 1.049433 1.029817 1.0709693 0.8326768 1.037767
1.039843 1.0073645 0.96137094 0.93682307 1.0012171 0.91637594 0.98799366 0.9657905
1.002127 1.048635 0.94418687 0.96627307 0.88615817 0.9558876 0.8579912 1.0585163
00000000: ba99 7b3f 1ca7 873f 477e 853f 15dc 753f
00000010: ea0e 803f 954e 803f c4de 803f 79a8 7a3f
00000020: 9dbb 8c3f 61f2 6b3f 4522 7e3f 55a5 8c3f
00000030: 20d5 813f 1070 813f 9c02 843f 58b9 813f
00000040: 2fe0 743f 53c6 783f 6495 843f 9f47 853f
00000050: 27d6 883f 32d2 813f 2707 713f 5a9d 7b3f
00000060: bedd 823f aa1e 843f 5c5f 7e3f bdfd 823f
00000070: 5261 753f e7c6 8d3f e6f8 783f 55cf 833f
00000080: 5cb1 7a3f 1eb1 8b3f 1af2 733f 95b3 5d3f
00000090: 3bb3 813f c228 833f f89a 7d3f 0a96 823f
000000a0: 4f5c 7b3f d212 6f3f 02f7 853f d253 863f
000000b0: 0bd1 833f 8615 893f 4f2a 553f 8dd5 843f
000000c0: 9319 853f 52f1 803f 681c 763f a3d3 6f3f
000000d0: e227 803f 9d97 6a3f 27ed 7c3f 0c3e 773f
000000e0: b345 803f ac39 863f 3bb6 713f ac5d 773f
000000f0: 43db 623f 0db5 743f 50a5 5b3f 767d 873f

bn1.bias f4 [64]
-0.13182178 0.0037084918 -0.018261112 -0.06342624 -0.06932705 -0.07809579 -0.015133303 -0.03458055
0.009904623 -0.0304834 -0.040302116 -0.0374745 -0.13881852 -0.1776347 -0.06979135 -0.18206203
-0.102776445 -0.12850632 -0.18912594 -0.08018251 -0.12945119 0.034397397 -0.08039714 -0.1150779
-0.16581382 -0.08530112 -0.12124617 -0.104279935 -0.12992367 -0.049791276 -0.059225943 0.0059492746
-0.018702468 -0.04300911 -0.07324937 -0.15181832 -0.24439357 -0.019582197 -0.09205594 -0.11206173
-0.12924512 -0.107360154 -0.01660804 -0.037550427 -0.06870047 -0.16309424 -0.053413272 -0.20238496
-0.08397529 -0.15046717 -0.14252128 0.0479025 -0.031650573 -0.12807798 -0.031034563 -0.025865477
-0.122116864 -0.030941248 -0.15864702 -0.11032908 -0.12964174 -0.2555214 -0.22011304 -0.0418104
00000000: 4afc 06be 2b0a 733b 5498 95bc 9ee5 81bd
00000010: 57fb 8dbd b0f0 9fbd acf1 77bc 56a4 0dbd
00000020: 0047 223c 53b8 f9bc d513 25bd dc7e 19bd
00000030: 7126 0ebe dfe5 35be c4ee 8ebd 786e 3abe
00000040: 757c d2bd 2997 03be 3baa 41be ba36 a4bd
00000050: da8e 04be 49e4 0c3d 41a7 a4bd f6ad ebbd
00000060: 19cb 29be 5bb2 aebd e94f f8bd b890 d5bd
00000070: b60a 05be f0f1 4bbd e796 72bd 22f2 c23b
00000080: eb35 99bc 522a 30bd c403 96bd 4376 1bbe
00000090: 4f42 7abe d86a a0bc d387 bcbd 9f80 e5bd
000000a0: d558 04be a4df dbbd 960d 88bc 7ace 19bd
000000b0: d5b2 8cbd 2d02 27be e0c7 5abd 013e 4fbe
000000c0: 3dfb abbd 1114 1abe 19f1 11be 6935 443d
000000d0: 08a4 01bd e026 03be 323c febc d6e3 d3bc
000000e0: 6818 fabd 8078 fdbc 5d74 22be 36f4 e1bd
000000f0: cec0 04be b3d3 82be 5065 61be 6241 2bbd

bn1.running_mean f4 [64]
-0.4754896 -0.24194624 0.17118907 -0.019851007 -0.42286566 0.37035608 0.12830234 -0.2980372
-0.4398206 -0.2289683 -0.29609904 -0.3979304 -0.42070022 -0.23378655 -0.20731644 0.01067229
-0.2926512 -0.33719963 -0.093815714 0.33849627 -0.0970569 -0.3052455 0.3005012 0.42411414
-0.15435846 -0.2856067 -0.111829914 -0.3109122 -0.21202655 -0.31720576 0.36670405 -0.24817872
0.08354695 0.02575903 0.35485303 0.40814677 -0.10214886 -0.03655682 0.3118007 -0.43626168
-0.087624386 -0.16358739 -0.32533735 0.1757034 -0.0073472564 -0.37616032 0.34050834 -0.048155256
-0.26591575 -0.42060423 0.131241 0.2816885 -0.11329341 0.09397126 0.23152249 0.08721477
-0.38710788 -0.20800139 -0.22661483 0.28854012 -0.23804434 -0.31655085 0.28435254 -0.17639741
00000000: 5f73 f3be c1c0 77be 304c 2f3e 949e a2bc
00000010: d981 d8be 509f bd3e b061 033e 5598 98be
00000020: 2a30 e1be ab76 6abe 4b9a 97be 89bd cbbe
00000030: 0566 d7be be65 6fbe c34a 54be d4da 2e3c
00000040: 61d6 95be 6ea5 acbe 7422 c0bd 624f ad3e
00000050: c5c5 c6bd 2349 9cbe 4bdb 993e 7d25 d93e
00000060: 2510 1ebe 0b3b 92be 1507 e5bd e22f 9fbe
00000070: 7d1d 59be cb68 a2be a2c0 bb3e 9022 7ebe
00000080: aa1a ab3d 9a04 d33c 4caf b53e 9df8 d03e
00000090: 6c33 d1bd 9bbc 15bd 57a4 9f3e b15d dfbe
000000a0: 6a74 b3bd 7483 27be 9e92 a6be 98eb 333e
000000b0: 41c1 f0bb 1698 c0be 1c57 ae3e 723e 45bd
000000c0: 1c26 88be 7059 d7be 0a64 063e 7a39 903e
000000d0: 6006 e8bd 0174 c03d 3b14 6d3e a89d b23d
000000e0: 0133 c6be 51fe 54be b80d 68be 88bb 933e
000000f0: e5c1 73be f412 a2be a896 913e 86a1 34be

bn1.running_var f4 [64]
0.27535266 0.13237207 0.17212181 0.32188118 0.2605456 0.8058876 0.7285506 0.29193622
0.12362294 0.74430466 0.2600634 0.5510622 0.36302897 0.2984949 0.42973998 0.534373
0.28411865 0.72408766 0.27187532 0.23430517 0.34071413 0.6119216 0.29755908 0.16552822
0.37908465 0.38056582 0.41366458 0.19312309 0.15483765 0.31541178 0.21387984 0.21543737
0.28357562 0.13131413 0.3317069 0.63274163 0.5815357 0.55891776 0.46596324 0.20691265
0.10762851 0.29311332 0.2206415 0.31540322 0.58450735 0.23502573 0.32893473 0.23551936
0.26275554 0.8286664 0.19122288 0.15209962 0.12504433 0.19969383 0.22396085 0.42596802
0.286529 0.4098276 0.33181968 0.098683245 0.22482024 0.79063153 0.6312765 0.47511533
00000000: 06fb 8c3e 8b8c 073e b340 303e 9ccd a43e
00000010: 3c66 853e a64e 4e3f 4b82 3a3f aa78 953e
00000020: 062e fd3d c08a 3e3f 0827 853e 6a12 0d3f
00000030: efde b93e 53d4 983e e106 dc3e abcc 083f
00000040: 0078 913e cf5d 393f 3e33 8b3e b2ed 6f3e
00000050: 1572 ae3e e5a6 1c3f aa59 983e 3b80 293e
00000060: 6217 c23e 86d9 c23e d8cb d33e 0fc2 453e
00000070: c38d 1e3e a77d a13e 5103 5b3e 9d9b 5c3e
00000080: d330 913e 3677 063e 7dd5 a93e 5bfb 213f
00000090: 86df 143f 3c15 0f3f bc92 ee3e e9e0 533e
000000a0: 566c dc3d f312 963e d8ef 613e 887c a13e
000000b0: 46a2 153f 96aa 703e 226a a83e fd2b 713e
000000c0: e587 863e 7b23 543f eecf 433e 01c0 1b3e
000000d0: 9f0b 003e 8a7c 4c3e fe55 653e 7b18 da3e
000000e0: eeb3 923e ecd4 d13e 45e4 a93e 711a ca3d
000000f0: 4737 663e d466 4a3f 569b 213f 5142 f33e

conv2.weight f4 [128, 64, 3]
0.00728969 -0.035601974 -0.08803718 0.077172816 0.012559423 -0.13292967 0.054994866 -0.05046537
0.089688994 0.10390561 -0.06596499 0.016545855 -0.06304331 -0.010170339 -0.061295617 0.13014653
0.052645274 -0.036888797 -0.055429675 -0.014600435 -0.03956771 -0.05880154 -0.082458414 -0.037758198
0.09654974 -0.069201656 -0.09632019 -0.018022783 -0.0113275815 -0.021918459 0.101264745 -0.1522233
-0.109739974 -0.03953457 -0.02423208 -0.054923173 0.05709755 0.09517641 0.0034562617 -0.004083212
-0.0486308 0.05861934 0.09745353 0.126523 -0.058076434 0.12112429 0.08099281 -0.11468372
0.016275387 -0.09314705 0.005480476 0.16628298 0.020717882 -0.06413627 0.11331192 0.07179946
-0.040082972 -0.096377425 0.024422394 0.019022172 0.10462818 -0.027093437 -0.025606846 -0.059531596
-0.14331125 -0.13448435 -0.080085576 -0.004282395 -0.042861845 -0.10942266 -0.113181755 0.03145434
0.065171085 0.12910144 -0.08548355 0.08471686 0.06300843 -0.034065925 -0.030620435 -0.016924458
-0.17953214 0.0108637195 -0.0067465333 0.005617049 0.06882593 -0.014200755 -4.5130004e-05 -0.0110156955
0.0725312 0.08024463 -0.050053027 -0.07794322 -0.05365406 -0.011252998 -0.116657645 0.045250025
0.018522188 -0.017005011 0.00519683 -0.02740701 0.08319179 0.075555965 0.027424175 0.004975202
-0.08275338 0.10480745 0.007666474 -0.08651305 0.19336207 0.016822414 -0.05512382 0.037348576
-0.12128024 0.050135545 -0.0055134604 0.040182874 -0.082341515 -0.0019530987 -0.09398077 -0.075688146
0.1319032 -0.060157016 0.02324288 -0.043778077 -0.11849128 -0.001662569 0.0448064 -0.061208054
0.0014047172 0.122428454 -0.07187463 -0.018859623 -0.0015686516 0.049078975 -0.076208025 0.114934705
0.035993587 -0.052850902 -0.090350576 -0.030743716 0.092607304 -0.12146962 -0.06506451 0.006417353
0.17384368 0.097659834 0.044448197 0.16997358 0.0103502665 0.052643303 0.0018345307 -0.14209594
-0.10025733 -0.012572311 0.02171529 0.009628516 0.039310597 -0.005832437 -0.1372192 -0.025518378
-0.026120571 -0.019967623 -0.05819053 -0.015660996 -0.054702774 0.0734093 0.072210655 0.08794776
-0.014233221 -0.014131631 -0.060182545 0.06412868 0.10645885 0.0335169 -0.05941145 -0.0018977092
-0.020831892 0.02480276 0.03847223 0.079184294 0.027036062 0.067154035 -0.051503625 0.037262212
0.09806692 -0.080034606 0.0922118 0.011684085 -0.06613211 0.06896068 -0.016970916 0.015445592
0.07026175 -0.02589405 0.052265786 0.04465361 -0.09859346 0.07023356 -0.17373821 -0.07228334
-0.06633848 -0.013194997 -0.057526764 -0.032277837 -0.124722846 0.006732388 0.0162124 -0.005790076
0.029764298 0.0042527644 -0.0427822 -0.0813302 0.03200818 -0.025989888 0.041315995 0.0035495623
-0.060721863 0.016417965 -0.07946083 0.02836283 -0.024410434 -0.052286565 0.10317286 0.056625582
-0.02342373 0.050996717 -0.09086947 0.09086372 -0.09278811 -0.015357824 0.07115124 0.08342741
-0.017305782 -0.014009277 0.038838387 -0.0064812643 -0.011030848 0.05351956 0.1229478 0.12506862
-0.02925022 -0.06992975 -0.019566227 0.080792435 0.07225182 -0.030477744 0.1435018 0.05156977
0.03668618 -0.02609143 0.003650963 0.0042523122 -0.03401292 -0.06782155 -0.114213176 0.055263676
00000000: 5ade ee3b 60d3 11bd d64c b4bd c80c 9e3d
00000010: 0ac6 4d3c b71e 08be 4c42 613d c7b4 4ebd
00000020: ddae b73d 77cc d43d a718 87bd 2c8b 873c
00000030: da1c 81bd 7ea1 26bc 1d11 7bbd 2245 053e
00000040: 92a2 573d b518 17bd 3a0a 63bd aa36 6fbc
00000050: c011 22bd e2d9 70bd f5df a8bd 57a8 1abd
00000060: dfbb c53d 99b9 8dbd 8543 c5bd 84a4 93bc
00000070: 5297 39bc 578e b3bc e463 cf3d 6de0 1bbe
00000080: 5abf e0bd 00ef 21bd 5b82 c6bc 1ff7 60bd
00000090: 1fdf 693d daeb c23d 7382 623b 77cc 85bb
000000a0: 1731 47bd d51a 703d b795 c73d 3f8f 013e
000000b0: 8ee1 6dbd 0310 f83d 8fdf a53d 4cdf eabd
000000c0: f653 853c e1c3 bebd 9195 b33b 1646 2a3e
000000d0: 8cb8 a93c e059 83bd 1410 e83d 980b 933d
000000e0: 0b2e 24bd 8761 c5bd 7911 c83c 63d4 9b3c
000000f0: 4d47 d63d 0ef3 ddbc 73c5 d1bc 67d7 73bd
00000100: 2fc0 12be 44b6 09be e803 a4bd 5553 8cbb
00000110: e78f 2fbd fd18 e0bd d6cb e7bd 44d6 003d
00000120: 6b78 853d 2b33 043e 0012 afbd 0880 ad3d
00000130: 900a 813d b688 0bbd b5d7 fabc 29a5 8abc
00000140: 46d7 37be befd 313c 0612 ddbb 390f b83b
00000150: 9cf4 8c3d 49aa 68bc f949 3db8 2d7b 34bc
00000160: 3d8b 943d 4c57 a43d 6704 4dbd b2a0 9fbd
00000170: 5cc4 5bbd 7f5e 38bc 34ea eebd 1758 393d
00000180: d8bb 973c 184e 8bbc 2b4a aa3b aa84 e0bc
00000190: 7560 aa3d 16bd 9a3d aaa8 e03c 0507 a33b
000001a0: 9b7a a9bd 4aa5 d63d 0c37 fb3b c12d b1bd
000001b0: b500 463e 29cf 893c 84c9 61bd d2fa 183d
000001c0: c661 f8bd ee5a 4d3d 42aa b4bb cc96 243d
000001d0: aba2 a8bd 1eff ffba fd78 c0bd 6302 9bbd
000001e0: a211 073e 3467 76bd da67 be3c a450 33bd
000001f0: 8eab f2bd 8fea d9ba ea86 373d 4cb5 7abd
00000200: 7d1e b83a c5bb fa3d 0233 93bd 7f7f 9abc
00000210: 379b cdba 0907 493d f412 9cbd e362 eb3d
00000220: 036e 133d 307a 58bd b909 b9bd 3fda fbbc
00000230: e6a8 bd3d 10c5 f8bd 8b40 85bd a948 d23b
00000240: 1404 323e e101 c83d 500f 363d 8e0d 2e3e
00000250: 2a94 293c 81a0 573d a374 f03a 9981 11be
00000260: b753 cdbd 18fc 4dbc 44e4 b13c ecc0 1d3c
00000270: 2604 213d 071e bfbb 3183 0cbe eb0b d1bc
00000280: cffa d5bc 2493 a3bc 3159 6ebd 7d4b 80bc
00000290: 0410 60bd 9d57 963d 2ee3 933d f51d b43d
000002a0: 7532 69bc 5b88 67bc f981 76bd e655 833d
000002b0: 1907 da3d 0449 093d 6c59 73bd 8ebc f8ba
000002c0: a5a7 aabc 282f cb3c 0f95 1d3d 602b a23d
000002d0: bb7a dd3c 0e88 893d 77f5 52bd 43a0 183d
000002e0: 4fd7 c83d 2fe9 a3bd 8ad9 bc3d 9b6e 3f3c
000002f0: 4670 87bd 423b 8d3d 9706 8bbc 820f 7d3c
00000300: 64e5 8f3d c21f d4bc a614 563d b4e6 363d
00000310: 5eeb c9bd 9dd6 8f3d 6ee8 31be 4a09 94bd
00000320: 78dc 87bd d42f 58bc 2fa1 6bbd c435 04bd
00000330: b16e ffbd 5d9b dc3b decf 843c aeba bdbb
00000340: 42d4 f33c c65a 8b3b 633c 2fbd 7390 a6bd
00000350: 021b 033d bfe8 d4bc f63a 293d c69f 683b
00000360: 7db7 78bd f87e 863c 5cbc a2bd 2a59 e83c
00000370: 64f8 c7bc 702a 56bd 4b4c d33d 3af0 673d
00000380: 1fe3 bfbc efe1 503d c619 babd c216 ba3d
00000390: b107 bebd 629f 7bbc beb7 913d fddb aa3d
000003a0: dbc4 8dbc 2b87 65bc 0015 1f3d c960 d4bb
000003b0: bbba 34bc 5337 5b3d 0ecc fb3d fd11 003e
000003c0: 289e efbc 5437 8fbd 5a49 a0bc 8176 a53d
000003d0: c3f8 933d 76ac f9bc 23f2 123e d33a 533d
000003e0: 3f44 163d b2bd d5bc ff44 6f3b fb56 8b3b
000003f0: 2251 0bbd 06e6 8abd 99e8 e9bd 2a5c 623d

conv2.bias f4 [128]
0.05505789 0.03843413 -0.023025148 0.06433152 0.017223489 -0.053189598 -0.07721085 -0.0032412426
0.020950995 -0.022978866 0.027748875 -0.012662599 -0.015338288 -0.08486972 -0.027612647 -0.040485486
-0.03756396 -0.026907975 0.063802026 0.08650891 -0.0044179857 0.030824296 -0.03863886 0.08368379
-0.020439673 0.07159637 -0.07600344 0.06262125 -0.0078148795 -0.012691475 -0.0013360268 -0.03680582
0.033617385 -0.024774786 -0.0017243542 -0.0016810264 -0.027942114 0.0036882297 0.018713588 0.08112928
-0.011147751 0.03776142 0.06318751 0.062435374 0.024965428 -0.022799347 0.010929282 0.0030089263
-0.056660865 0.034193594 -0.059385847 -0.0755977 -0.009282734 -0.012944508 -0.012518923 -0.022205176
-0.0077836616 -0.02968655 0.05086337 0.038626205 0.07240289 0.070518315 -0.037031 -0.03503883
-0.06230718 0.030480236 0.008725397 0.021840632 0.04609219 0.06439917 -0.0127737615 -0.06986135
0.044474073 -0.05449772 -0.061683606 0.053755432 0.023033956 -0.0873798 0.05995411 -0.027551558
-0.0514648 -0.042579517 0.020826364 -0.07025675 0.04504436 -0.025685042 0.037789866 -0.052783586
0.01949402 -0.068856 -0.0010936486 0.048989873 -0.011541738 -0.05248376 -0.066207156 0.027523989
0.00026281909 -0.0578145 -0.0072718905 -0.014356798 -0.032112326 -0.013170587 -0.02102946 0.06578782
0.033338483 -0.025593545 0.033200506 0.010156194 -0.06217626 -0.043394882 0.08268218 -0.00024980257
-0.06359892 0.010169894 0.08100613 0.0836641 -0.06832497 0.03504194 0.044870052 0.029382493
0.005093916 0.04893811 -0.062350124 0.010787326 0.049866088 0.09153023 0.004555335 0.057620987
00000000: 6284 613d 1b6d 1d3d 3c9f bcbc 3ec0 833d
00000010: 4618 8d3c 56dd 59bd b920 9ebd 076b 54bb
00000020: 6ca1 ab3c 2d3e bcbc 9c51 e33c ca76 4fbc
00000030: 714d 7bbc 2dd0 adbd eb33 e2bc 1cd4 25bd
00000040: abdc 19bd 1d6e dcbc a3aa 823d 952b b13d
00000050: c0c4 90bb 3c83 fc3c c843 1ebd 6862 ab3d
00000060: 1a71 a7bc 1ea1 923d b1a7 9bbd 923f 803d
00000070: fb09 00bc e8ef 4fbc 9f1d afba b3c1 16bd
00000080: 62b2 093d 7ef4 cabc ba03 e2ba e355 dcba
00000090: dce6 e4bc 3ab6 713b 3d4d 993c 1c27 a63d
000000a0: 0ea5 36bc b8ab 1a3d 7468 813d 3cbc 7f3d
000000b0: 4c84 cc3c b2c5 babc bb10 333c 6831 453b
000000c0: 3915 68bd 950e 0c3d 933e 73bd f8d2 9abd
000000d0: 9c16 18bc 3415 54bc 2b1c 4dbc a1e7 b5bc
000000e0: 160e ffbb 3531 f3bc 1c56 503d 8336 1e3d
000000f0: f747 943d e86b 903d d1ad 17bd e084 0fbd
00000100: d035 7fbd b0b1 f93c f8f4 0e3c 20eb b23c
00000110: 2acb 3c3d b6e3 833d 0a49 51bc 7813 8fbd
00000120: 722a 363d 0039 5fbd f3a7 7cbd a82e 5c3d
00000130: b5b1 bc3c 2ef4 b2bd 7192 753d ceb3 e1bc
00000140: c1cc 52bd dc67 2ebd 0d9c aa3c c5e2 8fbd
00000150: 6f80 383d 7069 d2bc 8cc9 1a3d 9a33 58bd
00000160: ecb1 9f3c 6004 8dbd c258 8fba 9ba9 483d
00000170: 8f19 3dbc 36f9 56bd 9e97 87bd fd79 e13c
00000180: fbca 8939 e6ce 6cbd 0a49 eebb c638 6bbc
00000190: 3788 03bd 72c9 57bc f945 acbc c4bb 863d
000001a0: ef8d 083d 8ea9 d1bc 41fd 073d 2a66 263c
000001b0: 89ac 7ebd d5be 31bd 4655 a93d eff7 82b9
000001c0: 2740 82bd a19f 263c 8be6 a53d 1558 ab3d
000001d0: f6ed 8bbd 2388 0f3d a9c9 373d 8eb3 f03c
000001e0: ddea a63b 5473 483d d862 7fbd 53bd 303c
000001f0: 6240 4c3d 3474 bb3d eb44 953b fc03 6c3d

bn2.weight f4 [128]
0.9452827 0.99128705 1.0336491 1.089203 0.9348801 0.9898689 1.0669483 0.9741773
0.88984877 0.99655294 1.1057296 1.0082918 0.98865247 1.0122631 1.056259 0.9182282
0.97099143 0.9694128 0.9912226 0.95256114 0.96263266 0.9938867 0.9289689 0.9716028
0.99244875 0.9862219 1.0258354 0.97252846 1.0275432 1.0137709 0.98531765 1.1510783
0.9619564 0.9653658 1.0470642 1.0359619 1.0409422 0.9187364 0.95322037 0.99610245
0.9616171 1.0060446 1.0518991 1.0056095 1.0244422 1.0237728 0.99629587 0.9359123
1.0102333 0.9633622 1.010322 0.98488295 1.0379391 0.9904143 1.0014352 0.9791292
1.057683 0.98900265 1.0254228 1.0063269 1.0585009 1.017088 1.0164919 0.9689015
1.0034021 0.9653945 1.026535 0.969254 0.9932721 1.028177 0.9857187 0.97472256
1.0256267 0.9301951 1.0086445 0.99388474 1.0110916 1.0429462 1.022027 0.9565016
0.98307127 0.9818818 0.99125606 0.91120017 1.0239434 0.9580022 0.9364045 0.93411314
0.9265446 1.008788 1.0006683 1.0274442 1.0446476 0.9327118 0.9892706 0.96981
0.9490716 0.9685602 1.0452765 1.0275118 1.0453006 1.0135485 1.0123111 0.98750097
0.9779148 1.0309608 1.0031178 1.0270203 0.96055627 1.0049465 0.8927377 0.9785925
1.0293744 0.93121344 0.9930236 0.98849523 0.9557672 1.0249374 1.0172933 0.99632704
1.0194256 1.0106544 0.9953484 1.0371447 0.9418604 1.0315909 0.9880408 0.9439546
00000000: 0cfe 713f fdc4 7d3f 9d4e 843f 016b 8b3f
00000010: 4d54 6f3f 0c68 7d3f c391 883f af63 793f
00000020: 21cd 633f 181e 7f3f 8c88 8d3f b50f 813f
00000030: 5418 7d3f d691 813f 7f33 873f 0111 6b3f
00000040: e592 783f 702b 783f c4c0 7d3f 0cdb 733f
00000050: 186f 763f 5c6f 7e3f e8d0 6d3f f6ba 783f
00000060: 1f11 7e3f 0a79 7c3f 934e 833f a0f7 783f
00000070: 8986 833f 3fc3 813f c73d 7c3f 8956 933f
00000080: c642 763f 3722 773f 3306 863f 669a 843f
00000090: 983d 853f 4f32 6b3f 4006 743f 9200 7f3f
000000a0: 8a2c 763f 12c6 803f a1a4 863f d0b7 803f
000000b0: ec20 833f fd0a 833f 3f0d 7f3f f397 6f3f
000000c0: 534f 813f e89e 763f 3b52 813f 4a21 7c3f
000000d0: 30db 843f cb8b 7d3f 072f 803f 36a8 7a3f
000000e0: 2862 873f 472f 7d3f 0e41 833f 52cf 803f
000000f0: f57c 873f f12f 823f 681c 823f ee09 783f
00000100: 7b6f 803f 1824 773f 8065 833f 0821 783f
00000110: 1547 7e3f 4e9b 833f 1058 7c3f 6b87 793f
00000120: bc47 833f 4421 6e3f 431b 813f 3b6f 7e3f
00000130: 736b 813f 437f 853f c8d1 823f 4add 743f
00000140: 8faa 7b3f 9b5c 7b3f f5c2 7d3f 6a44 693f
00000150: 9410 833f a23f 753f 35b8 6f3f 0a22 6f3f
00000160: 0732 6d3f f71f 813f e615 803f 4b83 833f
00000170: 03b7 853f 33c6 6e3f d740 7d3f 7845 783f
00000180: 5bf6 723f 90f3 773f 9fcb 853f 8285 833f
00000190: 69cc 853f f5bb 813f 6993 813f ddcc 7c3f
000001a0: a058 7a3f 86f6 833f 2a66 803f 6775 833f
000001b0: 04e7 753f 16a2 803f 758a 643f 0a85 7a3f
000001c0: 8ac2 833f 0164 6e3f cb36 7e3f 060e 7d3f
000001d0: 29ad 743f 2631 833f ab36 823f 4a0f 7f3f
000001e0: 8a7c 823f 205d 813f 27cf 7e3f 28c1 843f
000001f0: c31d 713f 2c0b 843f 3ef0 7c3f 02a7 713f

bn2.bias f4 [128]
-0.07828149 -0.07871226 -0.11266791 -0.052352965 -0.13295837 -0.014266874 -0.02293834 -0.10247738
-0.114790715 -0.11959539 -0.11202355 -0.06667133 -0.10415341 -0.059508655 -0.054186 -0.08825312
-0.10328543 -0.15191208 -0.052389745 -0.07216548 -0.09633626 -0.048871975 -0.09132901 -0.020049015
-0.046945505 -0.015968097 -0.026225315 -0.11883846 -0.08709242 -0.07226435 -0.07661602 -0.03537996
-0.13376388 -0.09209277 -0.018524367 -0.10407362 -0.08409854 -0.110238336 -0.07701169 -0.18366413
-0.12115586 -0.09200876 -0.061174493 -0.070211746 -0.064810224 -0.057435058 -0.07780743 -0.07792974
-0.0381534 -0.10142806 -0.087320335 -0.06726188 -0.08324473 -0.07026902 -0.0781657 -0.09659785
-0.08280519 -0.10049912 -0.12759033 -0.056346327 -0.14043105 -0.017808251 -0.12442175 -0.099429786
-0.057229653 -0.122359805 -0.063716516 -0.08883318 -0.078734115 -0.04388561 -0.08027366 -0.109421216
-0.044739883 -0.09036366 -0.04029936 -0.08286351 -0.07383564 -0.099866614 -0.03888269 -0.11652936
0.009204857 -0.12104439 -0.09621634 -0.15944077 -0.03583212 -0.09116797 -0.20518479 -0.11924717
-0.102587014 -0.12373163 -0.06631521 -0.017026106 -0.0188126 -0.15097223 -0.050264817 -0.1011195
-0.10267035 -0.09069732 -0.048913352 -0.014594223 -0.05051449 -0.0088543175 -0.06707571 -0.11682937
-0.079260506 -0.042638764 -0.03003204 -0.031059716 -0.072252825 -0.064488605 -0.12751664 -0.07322205
-0.054500587 -0.13532336 -0.0533955 -0.08763024 -0.09823137 -0.07074201 -0.058438573 -0.053230044
-0.0427006 -0.053485736 -0.051876046 -0.0845877 -0.11891815 -0.0666625 -0.048850156 -0.086131066
00000000: 0c52 a0bd e533 a1bd 6fbe e6bd 1070 56bd
00000010: 3d26 08be 9bbf 69bc 30e9 bbbc a9df d1bd
00000020: 6517 ebbd 6eee f4bd 9a6c e5bd fa8a 88bd
00000030: 624e d5bd 59bf 73bd 24f2 5dbd 0dbe b4bd
00000040: 5087 d3bd d78e 1bbe a196 56bd 7fcb 93bd
00000050: f24b c5bd fb2d 48bd b40a bbbd d53d a4bc
00000060: ee49 40bd 87cf 82bc 79d6 d6bc 9461 f3bd
00000070: 835d b2bd 55ff 93bd dce8 9cbd 94ea 10bd
00000080: 66f9 08be 229b bcbd 6ac0 97bc 8d24 d5bd
00000090: db3b acbd a3c4 e1bd 4eb8 9dbd 7312 3cbe
000000a0: 9020 f8bd 176f bcbd 1b92 7abd 2dcb 8fbd
000000b0: 39bb 84bd 0641 6bbd 8059 9fbd a199 9fbd
000000c0: bd46 1cbd 84b9 cfbd 01d5 b2bd 99c0 89bd
000000d0: 377c aabd 34e9 8fbd 5715 a0bd 18d5 c5bd
000000e0: c495 a9bd 7cd2 cdbd 0aa7 02be 68cb 66bd
000000f0: 28cd 0fbe 9ce2 91bc d5d0 febd d8a1 cbbd
00000100: a469 6abd c797 fabd ce7d 82bd 2cee b5bd
00000110: 5a3f a1bd 66c1 33bd 8466 a4bd 3b18 e0bd
00000120: 2b41 37bd 9510 b9bd f110 25bd 58b4 a9bd
00000130: 2437 97bd de86 ccbd 7543 1fbd f2a6 eebd
00000140: f8cf 163c 1fe6 f7bd 130d c5bd 7144 23be
00000150: b3c4 12bd 46b6 babd f61b 52be dc37 f4bd
00000160: 2419 d2bd 0267 fdbd 45d0 87bd 557a 8bbc
00000170: e21c 9abc 7798 1abe 7be2 4dbd be17 cfbd
00000180: d544 d2bd 84bf b9bd 5e59 48bd 9c1c 6fbc
00000190: 48e8 4ebd b311 11bc fd5e 89bd 3d44 efbd
000001a0: 5553 a2bd fca5 2ebd c105 f6bc f270 febc
000001b0: 4af9 93bd 9a12 84bd b993 02be 71f5 95bd
000001c0: 023c 5fbd 3592 0abe 3db5 5abd 7c77 b3bd
000001d0: 872d c9bd 30e1 90bd 495d 6fbd bf07 5abd
000001e0: d3e6 2ebd dc13 5bbd fa7b 54bd 513c adbd
000001f0: 5c8b f3bd 5986 88bd 1a17 48bd 7c65 b0bd

bn2.running_mean f4 [128]
-0.23655795 -0.101527095 -0.08360374 1.2033085 0.1757344 0.029819533 -0.72041726 -0.13842338
0.63655925 1.3595518 0.27915707 0.004051244 -1.282835 0.5304415 0.61036396 0.6563114
-1.1969124 1.1795878 0.25734097 -2.1352997 -1.64116 0.7860696 2.2138026 -0.40249756
1.2291598 0.29493588 -0.3605886 1.2576581 1.050744 -0.7648396 0.08774549 0.2622666
-0.6760368 0.1703539 0.14635381 1.0517228 -0.009973101 0.51598024 -0.5121694 2.2517023
1.7707448 0.4297322 0.9970821 -0.48061302 -1.9060167 -1.5057913 -0.83767605 -0.42787534
-1.0227536 0.06334827 0.030288098 0.030201172 0.074577875 1.7904859 0.33444145 -0.48220146
-0.31959838 -0.4685252 0.6418338 0.5435124 2.347928 -0.6957259 1.3539932 -1.9270704
1.0379025 0.039733175 -1.1632698 0.55130464 -0.096510045 0.4932839 -1.5103287 -2.507408
-0.34590727 2.615676 1.0166633 1.2199254 -0.44722682 0.71071374 -2.6822093 -2.2462175
-0.9557495 3.0344486 0.1462215 -1.6474105 0.31546098 0.3531542 2.1951659 -1.4188173
0.83851224 1.09578 -2.1056406 -0.11453514 0.3800612 1.1503687 0.044662315 -2.8121727
-1.0088613 -3.1623561 0.82090306 -2.4083724 -0.29013425 -0.71463335 0.42097253 0.5697649
-0.24149807 -1.2535632 -1.9358197 -1.6585023 1.3427455 -1.5479039 -0.70410454 -0.92061514
-0.47670832 0.29085916 1.6168047 -0.7378126 -1.6446129 0.34370425 0.6077845 -0.25713792
0.23804666 1.2552831 -0.7220369 0.49026135 -1.1625726 0.087552465 1.1231161 -0.005818704
00000000: 3f3c 72be 70ed cfbd 7038 abbd 0306 9a3f
00000010: b8f3 333e 1848 f43c 446d 38bf dcbe 0dbe
00000020: 8cf5 223f cb05 ae3f aded 8e3e 4cc0 843b
00000030: f033 a4bf 04cb 073f d040 1c3f 0604 283f
00000040: 6d34 99bf bcfc 963f 32c2 833e c0a8 08c0
00000050: 8811 d2bf db3b 493f f1ae 0d40 2914 cebe
00000060: 1c55 9d3f d601 973e 129f b8be f1fa a03f
00000070: c87e 863f 87cc 43bf e8b3 b33d cf47 863e
00000080: bf10 2dbf 4171 2e3e c6dd 153e da9e 863f
00000090: 3866 23bc 4817 043f 891d 03bf e41b 1040
000000a0: c4a7 e23f dc05 dc3e c640 7f3f e912 f6be
000000b0: 5bf8 f3bf c5bd c0bf f071 56bf 7a12 dbbe
000000c0: 97e9 82bf bdbc 813d bf1e f83c 7368 f73c
000000d0: 49bc 983d a42e e53f e93b ab3e 1ce3 f6be
000000e0: 66a2 a3be 89e2 efbe 384f 243f a123 0b3f
000000f0: 7444 1640 181b 32bf a64f ad3f 3eaa f6bf
00000100: fdd9 843f 41bf 223d 06e6 94bf 4d22 0d3f
00000110: 0fa7 c5bd b58f fc3e 7352 c1bf 5f79 20c0
00000120: c21a b1be 3c67 2740 0622 823f 8426 9c3f
00000130: eafa e4be 56f1 353f 51a9 2bc0 07c2 0fc0
00000140: 00ac 74bf 6834 4240 17bb 153e 59de d2bf
00000150: 1a84 a13e a1d0 b43e 997d 0c40 ce9b b5bf
00000160: bda8 563f 8542 8c3f d1c2 06c0 6691 eabd
00000170: 6297 c23e 483f 933f d5ef 363d a3fa 33c0
00000180: 5e22 81bf 0b64 4ac0 b426 523f c622 1ac0
00000190: 7a8c 94be 36f2 36bf b689 d73e 1ddc 113f
000001a0: 454b 77be c274 a0bf f1c8 f7bf ce49 d4bf
000001b0: 16df ab3f b721 c6bf 3240 34bf 6fad 6bbf
000001c0: 1d13 f4be 7eeb 943e 75f3 ce3f 49e1 3cbf
000001d0: ad82 d2bf 01fa af3e c497 1b3f 95a7 83be
000001e0: 81c2 733e 1ead a03f 69d7 38bf 8903 fb3e
000001f0: 2ecf 94bf b54e b33d 45c2 8f3f d4aa bebb

bn2.running_var f4 [128]
4.0245514 4.7999 2.4556754 3.761387 2.7621934 2.2383316 2.8883805 2.0990806
5.448316 2.8089235 1.9432116 2.3861353 5.428891 4.192311 2.4849172 3.0758023
2.9758544 3.0903604 1.9397503 3.668433 3.060646 2.9893138 3.783552 2.6455297
3.5141623 4.5598035 3.1747246 6.972205 2.2060022 2.6957424 4.345313 2.5006404
3.8373494 5.73619 2.9926255 3.557879 2.4001725 2.7951808 5.181426 2.710439
2.6343064 4.191029 1.7905767 2.4412425 5.539065 2.6078525 2.0639548 2.294999
4.973629 4.3181305 2.236491 3.8390446 3.6738024 4.2623177 2.6556244 6.95646
5.332422 1.6639884 2.3070598 4.013498 3.3447413 2.0198627 2.9644969 3.8863132
2.2643976 3.128516 3.5014691 2.8040214 3.1589468 3.9972162 3.2761638 4.332525
5.9608636 4.065601 3.583927 2.6126714 3.8814814 3.0866323 5.3871775 6.060767
3.3065655 4.9216666 5.086632 6.7295 6.161572 5.320705 3.3434083 3.8420572
4.4167614 3.0018804 3.005449 2.9026453 3.596166 3.3679419 2.2108777 4.6898637
3.2553475 4.342733 3.1003208 8.358153 3.077749 4.482238 2.6514144 1.6997563
2.73435 5.3311534 2.8578172 4.9558444 3.3721871 2.3257437 9.196673 4.562777
3.9064898 3.8396244 2.861815 3.832915 3.729506 2.4080424 2.2021303 2.7319129
2.8059683 3.5378823 2.965608 3.34733 3.0382917 1.5980176 2.416724 3.0516913
00000000: 20c9 8040 c898 9940 c929 1d40 91ba 7040
00000010: c7c7 3040 d340 0f40 3adb 3840 5657 0640
00000020: 9b58 ae40 67c5 3340 28bb f83f 71b6 1840
00000030: 7ab9 ad40 6927 8640 e208 1f40 f2d9 4440
00000040: 6674 3e40 77c8 4540 bd49 f83f 9bc7 6a40
00000050: a0e1 4340 eb50 3f40 b725 7240 5c50 2940
00000060: 09e8 6040 e9e9 9140 b02e 4b40 4e1c df40
00000070: 242f 0d40 0b87 2c40 ce0c 8b40 7e0a 2040
00000080: 2297 7540 de8e b740 2d87 3f40 4ab4 6340
00000090: 6d9c 1940 3ee4 3240 3ece a540 d577 2d40
000000a0: 7a98 2840 e91c 8640 9e31 e53f 513d 1c40
000000b0: 0540 b140 0ee7 2640 d617 0440 43e1 1240
000000c0: f827 9f40 202e 8a40 ab22 0f40 e8b2 7540
000000d0: 941f 6b40 e864 8840 c0f5 2940 529b de40
000000e0: 33a3 aa40 92fd d43f dea6 1340 936e 8040
000000f0: 3e10 5640 6e45 0140 51ba 3d40 5bb9 7840
00000100: e4eb 1040 9b39 4840 1218 6040 1675 3340
00000110: 2f2c 4a40 64d2 7f40 abac 5140 0ba4 8a40
00000120: 65bf be40 6719 8240 0f5f 6540 0236 2740
00000130: 316a 7840 628b 4540 c263 ac40 cef1 c140
00000140: c59e 5340 4b7e 9d40 b0c5 a240 1058 d740
00000150: 992b c540 3743 aa40 67fa 5540 44e4 7540
00000160: 1c56 8d40 cf1e 4040 4759 4040 f1c4 3940
00000170: 9527 6640 5c8c 5740 057f 0d40 5d13 9640
00000180: 9d57 5040 abf7 8a40 a86b 4640 ffba 0541
00000190: d7f9 4440 7e6e 8f40 c6b0 2940 9d91 d93f
000001a0: 97ff 2e40 cf98 aa40 7ae6 3640 4796 9e40
000001b0: ead1 5740 fcd8 1440 9325 1341 4502 9240
000001c0: ee03 7a40 68bc 7540 fa27 3740 7b4e 7540
000001d0: 3ab0 6e40 5e1d 1a40 b4ef 0c40 a9d7 2e40
000001e0: fc94 3340 aa6c 6240 85cc 3d40 a83a 5640
000001f0: 5f73 4240 d78b cc3f 9bab 1a40 e94e 4340

lstm1.weight_ih_l0 f4 [256, 128]
0.058753375 0.081002645 -0.13480563 0.15128033 -0.019742392 0.022818983 -0.02808837 0.043971393
0.12694734 0.07260741 0.030325362 0.009260416 -0.09670372 -0.046768513 0.1001198 0.10505063
-0.10115694 0.04291297 0.10925694 0.11878333 0.11033716 0.012639342 -0.13044272 0.1229963
0.18093145 0.029667279 0.022852974 0.043924853 -0.02640485 0.067327164 -0.016933927 0.1794044
0.09475693 -0.022350531 -0.12935488 -0.0022578659 0.09707202 0.059069928 -0.06970574 0.08737061
0.12549174 0.053519186 0.040221896 -0.027171275 -0.03629403 -0.19957627 -0.050407305 -0.03340039
0.005923205 -0.07879637 0.07274624 0.2488371 0.1538131 0.13955496 -0.010338444 -0.052375425
0.13432053 -0.14572918 0.0411221 0.038229708 0.13560101 -0.10617379 0.1868007 -0.120062366
-0.09207332 -0.056304626 0.03786563 0.12052947 -0.018501716 0.10402257 -0.12459586 -0.055571027
0.049439017 0.16503787 0.13602498 0.11291394 0.221938 0.01286812 -0.04972914 -0.01501481
0.116738506 -0.024667766 0.0030810721 -0.11659759 0.03860547 0.095608294 0.2010236 -0.0645495
-0.044294607 0.005046269 -0.05145393 -0.01948254 -0.07276648 -0.08814294 0.15980437 0.122829065
0.15483725 -0.16339298 -0.060708296 -0.04216281 0.021825274 -0.0273021 0.06158131 0.033853695
-0.00096791476 -0.006618149 0.048026536 0.044268142 0.01801442 -0.096748985 -0.034926802 0.04455866
-0.05345144 -0.09129141 0.14345248 0.02506054 0.12279712 0.08013768 -0.1324546 0.14208603
0.10591724 -0.036414634 0.108092755 0.20881905 -0.026062999 -0.026547005 0.08966469 -0.08599954
-0.075105906 -0.00312065 0.05297816 0.10025571 -0.004911641 -0.1456278 -0.039299667 -0.00017076521
0.09597227 -0.0807074 -0.21605168 -0.03726482 -0.102964275 -0.11191598 0.0047468524 -0.18976986
-0.10233385 0.118746944 0.01348383 -0.024196103 0.12540041 0.050744418 -0.06993783 -0.11782791
-0.016431639 -0.12807624 -0.05910081 -0.016611414 -0.047259275 -0.03349447 0.112145096 0.22841229
-0.06050089 -0.04974184 -0.05140636 -0.15311736 -0.22748801 0.10309234 0.045391437 0.10087309
-0.29009908 -0.19198558 0.09225721 0.028973969 -0.1612573 -0.1031692 -0.20192753 0.020382373
0.19793992 0.029128829 0.12381333 -0.044956338 0.26849374 -0.050017815 -0.09544498 0.004179706
-0.1049779 0.014634923 -0.081620984 -0.0735581 -0.008239725 0.029430985 -0.08460991 0.040911846
-0.22444817 0.031548772 0.16131914 0.045236915 -0.1888165 -0.11982146 -0.05862525 -0.021372054
0.2206351 -0.14052066 -0.27884454 0.0654124 -0.15391575 -0.016958972 -0.18498309 -0.19851305
-0.19359638 -0.059475087 -0.08106274 0.054712668 -0.10206994 -0.01764333 -0.064863965 0.0031246564
-0.15710291 -0.019895276 -0.09774124 0.00061176263 -0.17529017 0.16698344 -0.12318728 -0.10976249
-0.12880166 0.12570184 0.080746844 -0.17508955 -0.2102572 0.009486637 0.028196555 0.038214706
-0.17081296 -0.23788805 0.011321676 0.010847152 -0.013482522 -0.16983463 0.033230748 0.0056976397
-0.0049236636 0.09056521 0.15550376 -0.044890337 -0.13671109 0.0361926 0.0003781749 0.070512794
-0.03680061 -0.20375954 0.11280782 -0.017476209 -0.10451592 0.12654902 0.029199615 -0.12347573
00000000: 61a7 703d b7e4 a53d 7d0a 0abe 3be9 1a3e
00000010: ccba a1bc e0ee ba3c 9519 e6bc 591b 343d
00000020: 7cfe 013e 32b3 943d e56c f83c 00b9 173c
00000030: 9a0c c6bd 5790 3fbd 9c0b cd3d c924 d73d
00000040: 5f2b cfbd 83c5 2f3d 1ac2 df3d ad44 f33d
00000050: 73f8 e13d 3e15 4f3c c792 05be 7ce5 fb3d
00000060: 1846 393e cb08 f33c 2936 bb3c 8cea 333d
00000070: fc4e d8bc d3e2 893d 05b9 8abc c9b5 373e
00000080: ec0f c23d 7618 b7bc 9b75 04be b4f8 13bb
00000090: b2cd c63d 4ff3 713d e2c1 8ebd 5def b23d
000000a0: e880 003e ef36 5b3d b7bf 243d 4b96 debc
000000b0: 0ca9 14bd b95d 4cbe e477 4ebd d9ce 08bd
000000c0: 7217 c23b fe5f a1bd fbfb 943d 27cf 7e3e
000000d0: 2e81 1d3e 7fe7 0e3e 9462 29bc 9d87 56bd
000000e0: 528b 093e 083a 15be a66f 283d c196 1c3d
000000f0: feda 0a3e a571 d9bd af48 3f3e 42e3 f5bd
00000100: f090 bcbd ae9f 66bd fe18 1b3d 28d8 f63d
00000110: e990 97bc c909 d53d 1d2c ffbd 729e 63bd
00000120: 9180 4a3d b0ff 283e 224a 0b3e 6c3f e73d
00000130: b743 633e cfd4 523c c8b0 4bbd ad00 76bc
00000140: 9914 ef3d 0e14 cabc d0eb 493b b8ca eebd
00000150: c520 1e3d 48ce c33d 21d9 4d3e 8732 84bd
00000160: 436e 35bd 2c5b a53b 5bc1 52bd d999 9fbc
00000170: 9806 95bd 4984 b4bd c2a3 233e ce8d fb3d
00000180: a88d 1e3e 7d50 27be 43a9 78bd e9b2 2cbd
00000190: ebca b23c a7a8 dfbc af3c 7c3d 2caa 0a3d
000001a0: a9bb 7dba 0fdd d8bb 79b7 443d 8352 353d
000001b0: fa92 933c 5524 c6bd 680f 0fbd 2483 363d
000001c0: e6ef 5abd fef6 babd 35e5 123e c34b cd3c
000001d0: 0e7d fb3d 391f a43d 2ea2 07be 007f 113e
000001e0: 23eb d83d 8327 15bd bc5f dd3d a9d4 553e
000001f0: 1282 d5bc 1b79 d9bc 1fa2 b73d 8720 b0bd
00000200: 20d1 99bd d283 4cbb a1ff 583d de52 cd3d
00000210: d5f1 a0bb 741f 15be b0f8 20bd 700f 33b9
00000220: 1c8d c43d ec49 a5bd a73c 5dbe ffa2 18bd
00000230: efde d2bd 3534 e5bd 7c8b 9b3b 0853 42be
00000240: 6994 d1bd 9931 f33d 48eb 5c3c e836 c6bc
00000250: f768 003e 61d9 4f3d 913b 8fbd c24f f1bd
00000260: a59b 86bc 6b26 03be b113 72bd a914 88bc
00000270: f192 41bd 7f31 09bd 54ac e53d e9e4 693e
00000280: c8cf 77bd 1abe 4bbd 7a8f 52bd ccca 1cbe
00000290: 9ef2 68be 1422 d33d 5fec 393d 8d96 ce3d
000002a0: de87 94be de97 44be 59f1 bc3d d15a ed3c
000002b0: a220 25be 604a d3bd 17c6 4ebe eff8 a63c
000002c0: c3b0 4a3e 959f ee3c d891 fd3d 2324 38bd
000002d0: 0378 893e 7bdf 4cbd a878 c3bd eaf5 883b
000002e0: a7fe d6bd 51c7 6f3c e728 a7bd a1a5 96bd
000002f0: e9ff 06bc 4019 f13c f647 adbd 2e93 273d
00000300: bed5 65be 4939 013d d830 253e 584a 393d
00000310: 1d59 41be f464 f5bd 0821 70bd 7214 afbc
00000320: 2bee 613e a6e4 0fbe b6c4 8ebe f0f6 853d
00000330: 179c 1dbe 8bed 8abc 356c 3dbe 0147 4bbe
00000340: 213e 46be 269c 73bd 3904 a6bd 641a 603d
00000350: 0b0a d1bd bf88 90bc 66d7 84bd 09c7 4c3b
00000360: 96df 20be 6bfb a2bc 8f2c c8bd b25e 203a
00000370: 447f 33be b5fd 2a3e 9d49 fcbd 28cb e0bd
00000380: 95e4 03be fcb7 003e 9a5e a53d ad4a 33be
00000390: aa4d 57be d76d 1b3c 76fc e63c 0687 1c3d
000003a0: 98e9 2ebe ed98 73be 8d7e 393c 41b8 313c
000003b0: cce5 5cbc 21e9 2dbe f71c 083d 44b3 ba3b
000003c0: af56 a1bb 417a b93d 613c 1f3e eede 37bd
000003d0: fefd 0bbe b13e 143d c745 c639 0369 903d
000003e0: 3dbc 16bd 57a6 50be c907 e73d 442a 8fbc
000003f0: 710c d6bd 1196 013e 0834 ef3c d8e0 fcbd

lstm1.weight_hh_l0 f4 [256, 64]
-0.0077888127 -0.19114724 -0.09258587 -0.09280452 -0.005853135 0.06344081 -0.026019527 0.0012108512
-0.017223 -0.11729353 0.16991621 -0.0041641546 0.0982969 0.09498526 0.058565203 0.011718523
-0.0027047857 -0.061757453 0.20901895 -0.047367174 -0.023917796 0.035738885 0.07379017 0.18278597
-0.13484497 -0.1663995 -0.03336841 0.026808338 -0.002973647 -0.18598966 -0.2744469 -0.14271547
-0.032795258 -0.11702365 0.032376207 -0.027247183 -0.07663047 -0.19311038 -0.094691046 -0.09252648
-0.061270576 -0.026297603 0.10315421 -0.05998898 -0.05891089 0.0403059 0.16837366 -0.000745077
-0.04627069 0.1257118 -0.006971109 -0.065028034 0.019285172 -0.050101988 0.08404314 -0.13836658
-0.14241754 -0.080779515 -0.022135008 0.32363975 0.0814752 0.19916755 0.083836116 0.022231584
0.016647594 0.17196625 -0.0018430537 0.057254475 -0.005627806 0.040880617 0.2529546 0.03859081
0.107148595 -0.028875906 0.08336028 -0.06516797 -0.011780345 0.10970248 -0.13751188 -0.08728077
0.12216074 0.12843713 0.20789956 0.01780791 0.05455123 0.032159306 0.12993523 -0.2864773
0.08009923 -0.05739774 0.12694426 0.022251157 -0.017293762 0.08121516 -0.1405174 0.17620781
0.043426324 -0.07099585 -0.21500345 -0.006139829 0.07651927 -0.009474592 0.139029 -0.10432488
-0.05146436 0.040665515 -0.026774533 0.087008186 0.004958772 -0.079982266 0.07714868 -0.026291592
-0.08644954 0.05918635 0.009092554 -0.0052670212 -0.10545565 0.051846486 0.19241402 0.098948605
0.025934607 0.112593874 0.14772834 0.117214255 0.07538058 -0.020038275 0.02979272 -0.04321492
0.06233072 0.11177549 0.026405433 0.062997214 -0.101151235 0.12739958 0.032940652 0.22288518
-0.13914907 -0.11449164 0.18345606 -0.09187605 -0.098110855 0.04709983 0.1299685 -0.12903608
0.056215346 0.08827597 0.11120008 -0.026556758 -0.012579157 0.04570002 -0.02830041 0.25495872
0.007219294 0.11171905 -0.027121868 -0.12096969 0.032353025 0.13009904 -0.07487291 -0.07921429
0.00916653 -0.11446699 0.0801943 0.08804506 -0.050193414 -0.09186574 0.08269519 -0.0010416268
-0.028351063 -0.11706208 0.048555315 0.07664743 0.019441206 -0.03756855 0.029763121 -0.0870073
0.053078093 0.038646873 -0.1178292 -0.08965567 -0.08003575 -0.05009017 0.06850675 0.18446681
0.15272525 -0.03454922 0.12460255 0.029652867 0.022899158 0.09007178 -0.050643884 0.13098136
-0.05625922 -0.15866123 -0.042921033 0.14729896 0.016708745 0.21132556 -0.22443041 -0.012429035
-0.056665793 0.026387025 0.18682605 -0.10246592 -0.1349085 -0.12115416 0.1663442 -0.13763781
-0.062453963 0.017122151 -0.051236324 0.04737475 -0.10578154 0.050426126 -0.1256273 0.18166958
-0.09035584 0.21608278 -0.028381396 0.003725641 0.014724885 -0.043414414 0.12415901 -0.16346125
0.16062716 -0.08845079 0.16879758 -0.026766343 0.09966725 0.010467705 0.14734201 -0.07447415
-0.09878976 0.031107526 0.243318 0.018848866 -0.039727908 0.092897646 -0.012593481 -0.07472956
-0.20935969 -0.009148333 -0.24187282 0.07599364 -0.17039117 0.020534009 -0.08301049 0.1538579
0.06635788 -0.21416591 -0.005546664 0.016151298 -0.19573176 -0.019606492 -0.08401944 0.19248912
00000000: 4c39 ffbb 1abc 43be a99d bdbd 4c10 bebd
00000010: a8cb bfbb 41ed 813d e726 d5bc 6db5 9e3a
00000020: 4017 8dbc 9737 f0bd 84fe 2d3e 7673 88bb
00000030: e34f c93d a287 c23d 11e2 6f3d 0cff 3f3c
00000040: c642 31bb 62f5 7cbd 1009 563e 1504 42bd
00000050: 41ef c3bc f062 123d 4d1f 973d 3f2c 3b3e
00000060: cd14 0abe a164 2abe 50ad 08bd 299d db3c
00000070: 85e1 42bb 1374 3ebe 4e84 8cbe 0124 12be
00000080: 5254 06bd 18aa efbd ea9c 043d 7c35 dfbc
00000090: 70f0 9cbd babe 45be 61ed c1bd 867e bdbd
000000a0: dbf6 7abd 126e d7bc 8442 d33d 01b7 75bd
000000b0: 8c4c 71bd cd17 253d 256a 2c3e 4551 43ba
000000c0: 5686 3dbd 98ba 003e e76d e4bb 6b2d 85bd
000000d0: f0fb 9d3c be37 4dbd cf1e ac3d f8af 0dbe
000000e0: e7d5 11be bb6f a5bd 7a54 b5bc 1cb4 a53e
000000f0: 78dc a63d 94f2 4b3e 45b2 ab3d 031f b63c
00000100: 8960 883c ec17 303e 9f92 f1ba ab83 6a3d
00000110: 7569 b8bb 6f72 273d 4483 813e 6611 1e3d
00000120: b970 db3d 2a8d ecbc cbb8 aa3d c976 85bd
00000130: 5902 41bc b2ab e03d eacf 0cbe 43c0 b2bd
00000140: 692f fa3d 0685 033e 9fe3 543e e5e1 913c
00000150: 1c71 5f3d 7ab9 033d be0d 053e 27ad 92be
00000160: 110b a43d e519 6bbd adfd 013e 0f48 b63c
00000170: a6ab 8dbc 2254 a63d cbe3 0fbe d26f 343e
00000180: cddf 313d 4666 91bd dd29 5cbe 9e30 c9bb
00000190: 23b6 9c3d 523b 1bbc 9e5d 0e3e 48a8 d5bd
000001a0: 4bcc 52bd e290 263d 4456 dbbc 5931 b23d
000001b0: 327d a23b becd a3bd 2100 9e3d 7761 d7bc
000001c0: 750c b1bd 636d 723d f0f8 143c fa96 acbb
000001d0: 22f9 d7bd fb5c 543d 2e08 453e 91a5 ca3d
000001e0: d074 d43c 9e97 e63d 1946 173e 070e f03d
000001f0: 2261 9a3d 4f27 a4bc dd0f f43c 2102 31bd
00000200: 7f4e 7f3d 8cea e43d 3550 d83c af04 813d
00000210: 6128 cfbd 0975 023e c7ec 063d 033c 643e
00000220: 187d 0ebe 987a eabd e8db 3b3e 8329 bcbd
00000230: 58ee c8bd c0eb 403d 7616 053e 0922 04be
00000240: 1042 663d 08ca b43d debc e33d 8f8d d9bc
00000250: cf18 4ebc f22f 3b3d 43d6 e7bc f389 823e
00000260: d48f ec3b f5cc e43d ae2e debc f5be f7bd
00000270: 9b84 043d af38 053e f856 99bd 1a3b a2bd
00000280: 372f 163c ab6d eabd e93c a43d f850 b43d
00000290: 9c97 4dbd 1b24 bcbd 195c a93d 3287 88ba
000002a0: 7d40 e8bc 3ebe efbd f0e1 463d 54f9 9c3d
000002b0: 2a43 9f3c 7be1 19bd cad1 f33c e230 b2bd
000002c0: 6a68 593d 2f4c 1e3d 7050 f1bd 649d b7bd
000002d0: c9e9 a3bd 5a2b 4dbd 444d 8c3d dee4 3c3e
000002e0: 0264 1c3e 7c83 0dbd 9f2f ff3d 92ea f23c
000002f0: 0497 bb3c 8e77 b83d f66f 4fbd fa1f 063e
00000300: 1170 66bd 1778 22be f7cd 2fbd 8ad5 163e
00000310: c7e0 883c ba65 583e 16d1 65be 27a3 4bbc
00000320: 641a 68bd 9a29 d83c 544f 3f3e a7d9 d1bd
00000330: 7425 0abe ac1f f8bd 2256 2a3e edf0 0cbe
00000340: bacf 7fbd c143 8c3c 2edd 51bd 070c 423d
00000350: fea3 d8bd a08b 4e3d 71a4 00be 9707 3a3e
00000360: 7c0c b9bd ce44 5d3e 1a80 e8bc e229 743b
00000370: a540 713c 50d3 31bd 1447 fe3d 6362 27be
00000380: 727b 243e b025 b5bd 46d9 2c3e 1745 dbbc
00000390: 581e cc3d bd80 2b3c d3e0 163e e785 98bd
000003a0: 4952 cabd 36d5 fe3c 5b28 793e f068 9a3c
000003b0: bbb9 22bd 1f41 be3d e354 4ebc d00b 99bd
000003c0: 6362 56be e4e2 15bc 82ad 77be 8ea2 9b3d
000003d0: 067b 2ebe f036 a83c 6701 aabd ed8c 1d3e
000003e0: a4e6 873d 4f4e 5bbe cac0 b5bb ba4f 843c
000003f0: e86d 48be cb9d a0bc 6212 acbd de1b 453e
