backend/wakeword/detection/models/detect_me.onnx (onnx, 206810 bytes, 9 tensors)

layer1.weight f4 [32, 1536]
000000 7f 11 ea 3a a8 15 31 bc 41 9d 72 3c ff 56 80 3c
       0.0017857997 -0.010808386 0.014808 0.015666483
000010 bc 54 44 3c 05 8c 8b 3b aa 07 81 3c 7c 2d 37 bc
       0.011983093 0.004258635 0.015750725 -0.011180278
000020 52 5c df 3b 41 97 4b bc 02 eb 2f bc c6 23 59 bc
       0.0068164254 -0.012426198 -0.010737183 -0.013253158
000030 74 67 ea 3c 94 7f fb bc d0 fe 2a bc fd ca fe 3c
       0.028613783 -0.030700482 -0.010436729 0.031102652
000040 39 3a c1 3b 1d 94 be bc 2e 52 53 3d 7f 1b a9 3b
       0.0058968333 -0.023263985 0.051592045 0.0051607485
000050 20 ca 72 3c 85 c1 a8 3b 70 c2 c9 3b 49 39 f0 bc
       0.014818698 0.0051500225 0.006157212 -0.02932419
000060 05 86 28 b9 3f d4 99 3b e6 e9 a3 bb 5a 20 6e bc
       -0.00016071655 0.004694491 -0.005002248 -0.01453408
000070 61 ee db 3b ef f7 03 bd 93 55 08 ba 0b e2 5c 3c
       0.0067117666 -0.03221887 -0.000520074 0.013481627
000080 73 ce 54 b9 fc 8b b8 38 2d b9 72 3c fe 69 80 bb
       -0.00020294804 8.799878e-05 0.014814657 -0.0039188853
000090 a1 6b 6b bc d7 83 cb bb 09 57 82 3b 47 eb 22 bc
       -0.014368922 -0.006210785 0.0039776606 -0.00994379
0000a0 b5 d2 c4 bb 81 f8 8b bc 21 58 b7 3b bb 4c e4 3b
       -0.0060065635 -0.01708627 0.0055952226 0.006967155
0000b0 69 3d 5a 3c 1a 71 ef bb 1b 8d 62 bc b4 25 91 3c
       0.013320305 -0.007307184 -0.0138275875 0.017718174
0000c0 7f bc 53 3c 60 27 ae bc 83 ea ba bb 9c 4f 2a bc
       0.012923359 -0.02125901 -0.0057042255 -0.010394957
0000d0 a7 6b ae 3a 53 38 0f bc 27 75 17 3c 8d ec cb bb
       0.0013307229 -0.008741456 0.00924424 -0.0062232674
0000e0 e1 00 d4 bc eb 95 e9 3c 8e dc 23 ba ab 3f c6 3b
       -0.025879325 0.02851387 -0.0006250822 0.0060500703
0000f0 d6 84 c8 bc 3c ff be 3c 45 2e 31 3c b6 e2 28 bc
       -0.024477404 0.023315065 0.010814254 -0.010307958
000100 db 2d 76 bc d8 42 8d bc 27 80 56 ba 9e af eb bb
       -0.015025581 -0.017243788 -0.00081825483 -0.007192566
000110 d0 1d 9c 3a c9 1b fa 3c 03 bb 80 bc 9d 39 94 bc
       0.001191074 0.030530827 -0.015714174 -0.018093878
000120 58 9c 0b 3c 10 93 8b 3b 23 6d 57 3a 13 93 82 3b
       0.008521162 0.0042594746 0.0008217862 0.003984818
000130 c1 4b d1 3c 2c 36 52 bb a0 d9 7b bc f7 e6 b1 bb
       0.025548818 -0.0032075746 -0.01537171 -0.0054291445
000140 48 b0 70 3c 56 1a e4 3c 1f 3d 96 3c 3a 07 cd bc
       0.014690466 0.02784459 0.018339692 -0.02502786
000150 18 71 48 3c 7d d7 72 3a 47 0f 85 3c 89 87 58 bb
       0.012233995 0.00092636776 0.016242636 -0.003303977
000160 7c bf ae bc b0 28 a5 bc d6 08 ba bc 0e f4 b3 b9
       -0.021331541 -0.020161003 -0.022709291 -0.00034323375
000170 56 dd 58 bc 6e 40 87 3c ff 15 80 3c 9b 8b 09 3c
       -0.013236364 0.016510215 0.015635489 0.008395101
000180 39 4e a3 bc ab f8 36 3b d1 98 02 3c b7 49 48 3d
       -0.01993476 0.0027919214 0.007971005 0.048898425
000190 78 bd 93 bc 88 e6 bf 3c 14 c7 52 bc ad 3d 6f ba
       -0.018034682 0.023425356 -0.012864847 -0.0009126317
0001a0 07 66 27 3d e2 92 4c 3c f4 96 d0 bc 08 25 68 3b
       0.040868785 0.0124861915 -0.025462605 0.0035422463
0001b0 86 17 ec 3b 00 e0 9e 3a 23 5c 2b 3c 0c 91 f9 3a
       0.0072049526 0.00121212 0.010458979 0.001904042
0001c0 0f 55 8b 3c 06 0a f1 bb 23 fa 9e 3b 47 97 64 3c
       0.017008333 -0.007355931 0.004851596 0.013952083
0001d0 0a ba 1c bc d1 b3 c3 bb e5 1d 6c 3a e0 21 3e 3c
       -0.00956584 -0.0059723635 0.000900714 0.011604756
0001e0 12 dd 4d bb 3f 57 a3 bc 99 5e c1 3b 0c 99 e1 ba
       -0.0031412286 -0.019939063 0.0059011695 -0.0017211749
0001f0 59 32 8c 3b 4a db a7 3c aa af de ba 51 63 bb 3c
       0.004278463 0.020490307 -0.0016989608 0.022874506
000200 93 76 20 bc e3 97 db 3b 31 a8 99 3a 7d ba 7e bc
       -0.009793895 0.006701456 0.0011723099 -0.015547392
000210 5f 99 ad 3c 7e a7 2f bc cb 25 23 bc bd 80 3c b9
       0.021191297 -0.010721086 -0.009957741 -0.00017977036
000220 a8 77 a2 bc 65 eb 8b 3a 11 24 69 3c 94 d2 8f bc
       -0.019832447 0.0010675011 0.01422979 -0.017556466
000230 98 56 60 bc 4c 23 7e ba e8 61 95 bc d6 2b d2 3c
       -0.013692521 -0.00096945907 -0.018235162 0.025655668
000240 e4 52 f8 3b 28 b6 8e bc 75 1b 61 3c 83 d2 df bc
       0.0075782407 -0.017420843 0.013739456 -0.02732206
000250 91 b8 3e bc d8 25 9a bc fc 70 0f 3c 16 72 79 bc
       -0.011640684 -0.018816873 0.008754965 -0.015224954
000260 02 3e e4 3b 36 0c e1 3c 7e a0 83 bc 5c 5a a2 3c
       0.0069653997 0.027471643 -0.01606774 0.019818477
000270 9d 92 7b 3b 08 62 62 bc 12 42 a2 bc d9 24 7c bb
       0.003838695 -0.013817318 -0.019806895 -0.0038474111
000280 a2 c4 83 3a 35 72 b3 3c 9a a8 26 bb b0 08 c1 bb
       0.0010053108 0.021905044 -0.0025430084 -0.005890928
000290 a3 d3 33 3c a4 e6 db bb 27 1c 30 3c 4e 5e 08 3c
       0.010975751 -0.006710844 0.0107489 0.008323265
0002a0 54 c7 09 bc a3 ca 8c bc 64 b3 8f bc e5 06 a5 bc
       -0.00840934 -0.017186468 -0.017541595 -0.02014489
0002b0 ed 3a 6e 3c 7a 25 21 bc 50 40 ae 3c d4 ae 91 bc
       0.014540416 -0.009835595 0.021270901 -0.01778356
0002c0 83 a8 be bb d3 66 97 bb 7d ad 64 bc 65 d5 67 3c
       -0.005818428 -0.004620412 -0.013957378 0.014149998
0002d0 01 2f ce 3c 13 f5 04 3c b2 e3 7a 3c 74 94 0b 3c
       0.025168898 0.008115071 0.015313076 0.008519281
0002e0 5e 34 1e 3c 83 22 d0 3a 0f 5f c5 3a d0 12 de 3b
       0.00965604 0.0015879426 0.0015058237 0.006777145
0002f0 5b e0 7f 3c 2e f7 d2 bc 5a 6f f5 3b f5 7f 47 3c
       0.015617455 -0.02575263 0.007490081 0.012176503
000300 88 ae 23 bc 05 85 ab ba 8e fa bf 3c 33 6c 0e 3b
       -0.009990342 -0.0013085908 0.023434903 0.0021731972
000310 d1 ac a0 3c ce 0f 8b bb 2b af ea bb 22 29 a9 3c
       0.019613655 -0.0042438274 -0.007161995 0.020649496
000320 af eb 0d 3d 2c fc a2 3b 8a 23 02 bb a4 bc 7e bc
       0.034648594 0.004973909 -0.0019857609 -0.015547905
000330 a8 7d d1 3c 18 62 8f bc 09 1c 6f bc dc 5b 38 3c
       0.025572613 -0.01750283 -0.014594086 0.01125237
000340 d0 2d 69 3c 01 07 b6 3c db 8c 5e 3c 74 92 82 3c
       0.014232114 0.022220137 0.013583387 0.015938975
000350 c2 90 7b 3c d5 28 ee 3b e5 65 b8 bc dc 13 e6 ba
       0.015354337 0.007268051 -0.022509525 -0.0017553526
000360 26 b3 00 b9 9a bf 41 bc 58 bf ca bc 01 4b 52 3c
       -0.00012273769 -0.0118254665 -0.024749443 0.012835265
000370 cb e9 41 bb 96 2f 54 bc 3f d5 83 3c 23 5c d2 3c
       -0.0029588814 -0.0129507985 0.016092895 0.0256787
000380 d7 e6 9c 3c 76 66 5a bb ff 59 8b bc 18 d2 cc bc
       0.019153042 -0.0033325232 -0.017010687 -0.025002524
000390 8e 20 9e bb 21 59 85 bb 9d 2b 1d 3c 5d 0f 67 3c
       -0.004825658 -0.004069463 0.009592918 0.014102784
0003a0 a6 69 a2 bb d5 6d 9a 3c 67 6a 1a 3c a4 0c 10 bc
       -0.004956442 0.0188512 0.009424782 -0.008792076
0003b0 3e 8b 9b 3c cb fb 71 3c 8a a1 c7 bc d6 49 a2 bc
       0.018987294 0.014769505 -0.02436902 -0.019810598
0003c0 ec 75 9f 3c 2b 7e af bc 46 1b 62 3c d7 78 cc 3b
       0.01946541 -0.021422466 0.013800448 0.006239991
0003d0 3e ca c3 bb 55 bd 39 3a 52 33 99 bc 3a 2b aa bc
       -0.005975037 0.00070854026 -0.01870123 -0.020772565
0003e0 2b ca b1 bc 53 ec 62 bc eb e7 07 3c a3 a6 13 bc
       -0.021702847 -0.013850289 0.00829504 -0.009011897
0003f0 7c 91 51 3c 4d 5a 8a 3c 56 84 40 3b ac ea fa 3b
       0.012791034 0.016888762 0.0029375753 0.0076573696

layer1.bias f4 [32]
000000 d8 90 8f bc f1 8a ea bb 57 3e 15 bc 4b b9 40 3c
       -0.017525122 -0.0071576764 -0.009109101 0.011762927
000010 57 3c 99 3c 36 d5 a7 bc 4d 1d bb 3b e5 8c bc bc
       0.01870553 -0.02048741 0.00571028 -0.023016402
000020 07 ef bb bc 67 ab 3d 3c 74 7f ba bc 76 9b 24 bc
       -0.022941126 0.01157651 -0.022765853 -0.01004683
000030 2e 73 de ba 69 11 27 bc 2e e6 8c 3c 69 82 5b bc
       -0.0016971582 -0.010197022 0.017199602 -0.013397791
000040 a0 00 69 3c 2a 94 9f 3b cb 00 a4 bb 6b 26 12 bc
       0.01422134 0.0048699575 -0.0050049773 -0.008920292
000050 77 9e d6 bc 1c 8c 46 bc bc e8 20 3c 60 94 8b bb
       -0.026198609 -0.012118366 0.009821113 -0.004259631
000060 ca 51 6a 3b 22 13 83 3c 9c 8d 4b bc b8 67 d1 bb
       0.0035754316 0.016000334 -0.012423899 -0.006390538
000070 65 ec 15 bc 67 77 1b bc b4 7d cf 3a c2 ab 9f bb
       -0.009150599 -0.009488917 0.0015830309 -0.00487277

layernorm1.weight f4 [32]
000000 7e aa 77 3f ba 5f 7e 3f 30 c9 79 3f df e9 83 3f
       0.96744525 0.9936482 0.9757261 1.0305747
000010 5b 1c 70 3f f3 ad 76 3f 91 7d 7f 3f bc 5b 7d 3f
       0.93793267 0.96359175 0.99800974 0.989681
000020 32 76 7f 3f a2 68 7b 3f 46 3f 81 3f 6e db 7e 3f
       0.99789727 0.9820653 1.0097435 0.99553573
000030 c9 96 7d 3f e5 30 7e 3f c2 81 76 3f ab 34 80 3f
       0.99058205 0.9929336 0.96291745 1.0016073
000040 05 a7 80 3f b9 bf 7e 3f 8a b6 86 3f f7 e4 7d 3f
       1.005097 0.99511296 1.0524457 0.991775
000050 02 70 78 3f f1 fe 7d 3f 6a 77 7f 3f d5 ab 7d 3f
       0.9704591 0.99217135 0.99791586 0.9909032
000060 73 c4 80 3f 39 73 79 3f 02 4d 7f 3f 1c fe 82 3f
       1.0059952 0.9744144 0.9972688 1.0233798
000070 63 19 7f 3f ef 0d 7f 3f 96 90 78 3f 74 15 7e 3f
       0.9964811 0.99630636 0.9709562 0.99251485

layernorm1.bias f4 [32]
000000 52 d8 1d 3c b6 b7 29 bc 1f e8 ab bc af a7 09 3d
       0.009634094 -0.0103587415 -0.020984707 0.03360718
000010 d1 b6 96 3b c0 8a c6 3c 62 6b 0b bc f5 31 1c 3b
       0.00459943 0.024236083 -0.008509489 0.0023833488
000020 92 e3 0d bc 4f 15 a4 3b ef 66 0f 3d b4 34 83 bc
       -0.008660214 0.005007423 0.035010274 -0.016016342
000030 99 cd 08 bc e3 5f 04 bc a0 22 6f 3b d6 5e 0d 3c
       -0.0083498 -0.008079502 0.0036489144 0.008628568
000040 f6 b8 5b bb c2 83 4e bc ad 0f 35 3c a3 46 0a bc
       -0.0033526993 -0.012604656 0.011051101 -0.008439693
000050 e3 01 9d bc 31 80 43 bc c1 18 0d bc 62 31 85 bb
       -0.019165939 -0.011932419 -0.008611859 -0.004064725
000060 fc 2a c3 3b 17 66 da 3c 14 a6 85 3b b5 bd 51 3a
       0.005956052 0.026660008 0.004078636 0.0008000986
000070 33 05 30 bc 91 04 1e bc 9f 62 c3 3b 98 61 72 bc
       -0.010743427 -0.009644643 0.0059626843 -0.014793776

blocks.0.fcn_layer.weight f4 [32, 32]
000000 e9 fb 96 bd 84 59 2f 3e 5a fc 80 3d e6 a7 1a 3d
       -0.07372267 0.17123991 0.06298132 0.037757777
000010 d4 50 9d 3c d6 11 80 bc d6 80 90 bc 62 f6 70 3d
       0.01920358 -0.015633505 -0.017639559 0.05882872
000020 18 f9 23 3e 3a ba 03 bb 7e 42 57 3d 5c a5 12 be
       0.1601299 -0.0020100013 0.052553646 -0.14320892
000030 ff 6a eb bd c0 26 e1 3d f5 ca 10 be 03 79 b1 bc
       -0.11495017 0.10993719 -0.14139922 -0.021664148
000040 b2 92 03 3e 80 bf 0e be 7b 01 d8 3c 9b 96 00 bd
       0.12848929 -0.13940239 0.026367893 -0.03139363
000050 39 f9 0a 3e 27 a6 9d 3c 35 aa f6 bd 6f 0c 03 3e
       0.13571633 0.019244267 -0.12044183 0.12797712
000060 dc de 89 bb 89 0b d2 bd 11 37 cd 3d 40 ef 93 bd
       -0.004207475 -0.102561064 0.10020269 -0.07223368
000070 e5 ad d2 3d 22 ee 0b 3e cc 21 68 3d d2 07 15 bd
       0.10287074 0.13665059 0.056672856 -0.03638441
000080 35 59 fb 3d b0 c7 9f bd b0 9a d7 bd 6d b3 02 3d
       0.12272874 -0.07801759 -0.10527551 0.031909395
000090 87 27 ba bd b2 c5 90 3c 09 5f df 3c 11 76 47 3d
       -0.090895705 0.017672393 0.027266996 0.04869658
0000a0 25 8b ce bd bf b6 ed 3d 3b 19 fa bd a9 9d 2a 3d
       -0.100851335 0.11607122 -0.122118436 0.041654263
0000b0 d2 a4 20 3e 8c 34 25 bd 2f 89 73 3d 2e fc 24 3d
       0.15687874 -0.040333316 0.059457 0.04027956
0000c0 a7 99 f1 3c 82 98 b1 3b c7 8d 9c 3d 79 ce 99 bd
       0.029492212 0.0054197917 0.076442294 -0.07510085
0000d0 fe 7a eb 3c 5e 2e 3c bd 13 77 b2 bd b4 3e 00 be
       0.02874517 -0.045942657 -0.08714118 -0.1252392
0000e0 6f 8d 10 3d a2 4e e6 3d 02 1f 93 bd 75 10 98 3d
       0.03529113 0.11245467 -0.07183649 0.07425014
0000f0 2a 7c f7 bd f4 8d 71 bd 40 c9 f6 bc d1 7e d1 bd
       -0.12084229 -0.058973268 -0.03012526 -0.102292664
000100 9e 18 43 bd 83 a8 bd 3b b6 55 39 3d c3 f2 ea bd
       -0.0476309 0.0057879104 0.045247756 -0.114720844
000110 21 fe 88 bd 65 42 4a 3d 74 4d cc bc bd fa 77 3d
       -0.06689096 0.049379725 -0.024939276 0.060541857
000120 63 3f e3 3b 66 bc fc bd 7b a0 90 bd d2 ad 22 3e
       0.0069350465 -0.12340622 -0.07061859 0.1588662
000130 76 90 3f 3d fe 45 ea 3c 7c 9d da 3c 9c 3f 84 3d
       0.046768628 0.028597828 0.026686423 0.06457445
000140 13 91 30 bd 66 54 69 3d 4f a7 ab 3d 58 bd a2 bd
       -0.043107104 0.056965254 0.08381521 -0.07946271
000150 28 86 8d 3c 56 b5 5e 3d 96 38 01 3e 0a 9e 2b 3e
       0.017275885 0.054372154 0.12619242 0.16759506
000160 d7 d9 28 be d3 a7 1a 3e 48 44 bd 3d 0c 41 0a bd
       -0.1648935 0.15103082 0.09241539 -0.03375344
000170 b6 01 66 bc e1 2f a6 3d f5 fc 45 3d 1d 78 e0 3d
       -0.014038494 0.08114601 0.04833694 0.1096041
000180 be de 0d 3e 03 16 97 3d 47 cb 45 bd ae d9 4f 3d
       0.138545 0.07377245 -0.048289564 0.050744705
000190 98 f4 09 be c3 54 43 be a8 89 31 3e eb f7 74 bd
       -0.13472211 -0.19075303 0.17337668 -0.059806745
0001a0 a5 67 2f 3d b7 17 47 3d 5a 12 7d 3d 6b d1 31 3d
       0.042823453 0.0486066 0.06178508 0.043412607
0001b0 0f ac ef 3d 5a ad 25 be ef 9f 1a 3e 80 b6 01 be
       0.117027394 -0.1617941 0.15100072 -0.12667274
0001c0 e2 5c 4f be af 8b 84 3b b5 f6 06 3d 71 fb da bd
       -0.20250276 0.004044972 0.032950122 -0.1069249
0001d0 23 3a aa bc fd 12 58 bd 39 99 e2 bc 68 9c fb 3d
       -0.020779675 -0.052752484 -0.027660953 0.122856915
0001e0 2f 2a dc 3d db 5b 0c 3d 54 92 c4 3d c2 2b a9 3d
       0.107502334 0.034267288 0.095982224 0.08260299
0001f0 da cf 98 bd 93 9c 68 bd ba f7 8d bd cc b7 75 3d
       -0.074615195 -0.056789946 -0.06932016 0.059989735
000200 15 99 81 bd ec 98 86 3d ef fe 12 be 2c 92 ea 3c
       -0.06328026 0.06572136 -0.14355062 0.028634153
000210 89 a9 82 bd c1 a9 f8 3c 10 f9 41 bd 24 a5 06 be
       -0.063799925 0.030354382 -0.047356665 -0.13148934
000220 cb 49 5b bd d4 57 94 bd 23 76 58 3e 99 6e 94 3d
       -0.05353717 -0.072433144 0.21138816 0.07247657
000230 f9 f4 a1 3a 29 44 17 3e 1b 2a 8f bd d1 7f 98 3d
       0.0012356333 0.14772095 -0.06990453 0.07446254
000240 e5 fa 54 bc 05 0c 5f 3d 7c 10 33 bd c0 b1 4d 3d
       -0.012999271 0.054454822 -0.043716893 0.050218344
000250 a5 96 f7 bc ba 60 c1 bd 89 93 52 3d 3f 03 b0 3d
       -0.0302232 -0.09442277 0.05141023 0.08594369
000260 60 6e 19 3d 32 ee 8e bd 13 48 0b 3e b7 b4 b4 3d
       0.037458777 -0.06979026 0.13601713 0.08823531
000270 55 76 18 3e e7 7a 37 bc 49 2b e0 3c 9e 74 6c bd
       0.1488889 -0.011198736 0.02736439 -0.057728402
000280 08 25 51 3d f6 d5 c0 3c 2a 39 31 bd 98 c9 6f bd
       0.051060706 0.023539525 -0.043267407 -0.058541864
000290 03 24 db bd 4c b8 11 3d e4 65 a7 bd 3f a3 1f 3d
       -0.10700228 0.03557615 -0.08173731 0.038974043
0002a0 44 84 5d bd 66 83 ba bd ab 1f 2e 3e 4c 5e d4 bd
       -0.054081216 -0.091070935 0.17004268 -0.10369548
0002b0 ad 14 22 3e b0 9e 10 be 4d 2e f9 bd 97 8f 0f 3e
       0.158282 -0.14123034 -0.12167034 0.14019619
0002c0 29 29 3f 3e 78 f7 ff 3c 94 e8 cd 3d 5e a7 cc bd
       0.18668045 0.031245932 0.100541264 -0.0999286
0002d0 3d b9 31 3e 87 83 04 be 51 56 84 bd 3d cc bb 3d
       0.17355819 -0.12940799 -0.06461776 0.09169815
0002e0 cf c7 81 3d e3 45 5f bd 33 96 9a bc 10 15 11 3e
       0.063369386 -0.05451001 -0.018870449 0.14168191
0002f0 9a 32 1d 3e b9 b9 c3 bd ef 68 9b bd 1b fa b6 3d
       0.15351334 -0.09556908 -0.07588374 0.089344226
000300 2f a4 f1 bd 54 66 92 bd b0 8f a2 bb a9 cc c5 3d
       -0.11798894 -0.07148424 -0.0049609765 0.096581765
000310 ec ba 3f be 65 7c 1c bd c6 37 28 3d a6 d1 0a be
       -0.18723649 -0.03820457 0.041068815 -0.13556537
000320 1b 57 f0 bd 8f 19 02 3e 20 52 4e 3d 2a df 82 bc
       -0.11735364 0.12705062 0.05037129 -0.015975554
000330 ea fe f8 bd 19 6b cb 3d 81 a9 bf 3c c8 1c f9 bc
       -0.12157996 0.09932537 0.023396255 -0.030409232
000340 05 97 a5 3d 50 e9 0f bd de 54 0c be 08 5b f5 3b
       0.08085445 -0.035134614 -0.1370425 0.0074876584
000350 52 6a 1b be 41 c7 3d 3d d2 f8 a9 bb d1 ae 97 3c
       -0.15177277 0.0463326 -0.0051871324 0.018515976
000360 99 15 ee bd e5 41 15 be c4 38 36 3e 2e 16 51 3e
       -0.11625213 -0.14575918 0.17795092 0.20418617
000370 f8 82 ed bd a1 c4 07 be a8 0c 93 3d 2b 88 aa bd
       -0.11597246 -0.13258602 0.07180148 -0.08326753
000380 7c 63 0f 3e b0 0f c2 bc 35 0d 39 3e 8d e7 20 bd
       0.14002794 -0.023689121 0.18071444 -0.039283324
000390 eb 40 ac 3d 6f a2 44 3e 66 b3 fd 3d 6f 3a 1f bd
       0.084108196 0.19202588 0.12387733 -0.038874086
0003a0 55 a6 c4 bd 42 a6 10 be 57 f9 f1 3d 0b b2 c7 3d
       -0.09602038 -0.14125922 0.11815136 0.09750756
0003b0 54 53 11 3c e7 fe 5f bd 73 2f ee bd ca 8b e1 3d
       0.008869965 -0.054686453 -0.11630144 0.11012991
0003c0 7c 36 03 3e 0b cb eb 3c df d0 d6 bd 81 60 f3 3d
       0.12813753 0.028783342 -0.10489058 0.11883641
0003d0 ac b8 ab 3c 9d 55 76 bd 68 3f 02 be b8 c8 b3 bc
       0.020962082 -0.06014024 -0.127195 -0.021946296
0003e0 b0 f1 ef bd ae 18 11 3e 95 d4 09 be 1c c9 8d 3d
       -0.1171602 0.14169571 -0.1346 0.06923124
0003f0 32 d9 b0 bd fb 78 2d 3d 43 84 85 bd 88 37 b7 bd
       -0.08635177 0.042351704 -0.065193675 -0.089461386

blocks.0.fcn_layer.bias f4 [32]
000000 8a ee da bc 37 65 8d bd 6d 12 27 3d bb 46 08 3e
       -0.026725072 -0.06904071 0.040789057 0.13308232
000010 17 7c 2a bd bc 28 a1 bd e3 48 9d 3d a7 be c1 3d
       -0.041622248 -0.078690976 0.07679918 0.09460192
000020 bc a0 03 3e 5e 2c 61 3d 83 00 fe bd e6 1f 88 3d
       0.12854284 0.054973952 -0.12402441 0.06646709
000030 e6 a3 21 be 2a a9 f4 bd 4c ad f6 3d 8a b2 40 3d
       -0.15785179 -0.11946328 0.120447725 0.047045268
000040 b5 73 ec 3d f2 af c8 bd c9 55 8e 3b f1 f7 9f 3d
       0.11545507 -0.09799184 0.0043437225 0.07810963
000050 ca 50 f2 bc ef 5b ef 3c cd a7 00 bc b7 80 a4 3d
       -0.029579539 0.029218642 -0.007852507 0.08032363
000060 be 32 a8 bd 3f f4 08 be 48 87 9a bc 88 1d 93 3c
       -0.08212803 -0.13374422 -0.018863335 0.017958418
000070 0e 57 8d 3b ae a4 82 bd 38 7e f8 bb bd 1e 08 be
       0.0043133562 -0.063790664 -0.007583406 -0.13292976

blocks.0.layer_norm.weight f4 [32]
000000 d6 85 80 3f 1d d0 a2 3f a3 f4 7f 3f 26 65 a1 3f
       1.0040843 1.2719761 0.9998266 1.2608993
000010 0f 75 86 3f 17 0f 8a 3f 9c 3c 84 3f 33 5a 8d 3f
       1.0504473 1.0785855 1.0330997 1.1043152
000020 b5 1d 7b 3f a5 16 a0 3f 21 ef a2 3f 06 5d 80 3f
       0.98092204 1.250691 1.2729226 1.0028389
000030 c8 b4 80 3f 87 cb 87 3f 86 cd a0 3f b7 25 88 3f
       1.005517 1.0608987 1.2562721 1.063651
000040 e5 4a 82 3f b5 97 82 3f 08 c9 7e 3f c9 67 9c 3f
       1.0179106 1.0202547 0.995255 1.2219173
000050 af 8b a0 3f 6d d9 7f 3f d7 17 af 3f 5a 7a 80 3f
       1.2542628 0.9994114 1.367915 1.0037339
000060 67 cb 8b 3f 84 f3 81 3f ca c2 82 3f 66 5c 82 3f
       1.0921448 1.015244 1.0215695 1.0184448
000070 a0 b0 85 3f 62 d2 af 3f 27 5f 90 3f 52 5b 7f 3f
       1.0444527 1.3736079 1.1279038 0.9974872

blocks.0.layer_norm.bias f4 [32]
000000 8e 37 b3 3b 65 fc 88 3e 2b f3 b4 ba 8d c6 86 3e
       0.005469269 0.26755062 -0.001380538 0.26323357
000010 10 49 2c 3d 46 3e 5d 3d 09 90 80 3c bf 40 23 3d
       0.042061865 0.054014467 0.015693681 0.03985667
000020 79 83 02 bd ee 02 86 3e 47 13 87 3e 38 fd e3 3b
       -0.031863663 0.2617411 0.26381895 0.0069576763
000030 0e 3c 29 3c 1d d1 d3 3c 13 58 83 3e 40 5c 02 3d
       0.01032926 0.025856549 0.25653133 0.031826258
000040 fa cd f8 3c d6 ac c6 3c 06 9c 2f bc 5c c4 77 3e
       0.030371655 0.024252336 -0.010718351 0.24195999
000050 bb 90 86 3e 61 b1 61 ba 01 8f 9c 3e 67 6a 81 3c
       0.26282296 -0.00086095004 0.30577853 0.015797807
000060 23 2e 1f 3d b5 d4 2e 3b d0 86 70 3c 75 9c b4 3c
       0.03886236 0.0026677076 0.014680579 0.02204726
000070 b6 b1 0e 3d f0 de 9d 3e 30 9c 98 3d d1 e9 1f 3b
       0.034837447 0.3083415 0.074516654 0.002440084

last_layer.weight f4 [1, 32]
000000 41 30 15 3e 67 d6 a4 be 5e 9e 10 3e 1f 27 a3 be
       0.14569189 -0.32194826 0.14122912 -0.31865785
000010 c1 98 24 3e cf c3 1d 3e ad 9b e2 3d 1c a3 17 3e
       0.16073896 0.15406726 0.11064849 0.14808315
000020 1b 00 d3 bd 28 f7 9c be 93 1d b3 be db 9a 02 3e
       -0.103027545 -0.30657315 -0.349835 0.12754385
000030 81 1c 5f bc 09 37 51 3e db 2d b4 be 05 76 3d 3d
       -0.013617636 0.2043115 -0.35191235 0.04625513
000040 db 7c 3e 3e b7 09 03 3e 12 29 be bd f6 db ba be
       0.18602316 0.12796675 -0.09285177 -0.36495942
000050 95 d3 9b be 00 3c 58 bb d4 b7 af be a5 4e e7 bb
       -0.30434862 -0.0032994747 -0.34319937 -0.0070589357
000060 78 f0 43 3e 56 da 2f 3e f2 85 68 3d 81 6b 59 bc
       0.191347 0.17173132 0.056768365 -0.01327026
000070 7c 09 18 3d a2 a4 b3 be cd 31 0b 3e de 0e a4 bc
       0.03711842 -0.35086542 0.13593216 -0.02002662
